data/0108-2359checkpoint_dqn.pth (torch_old, 161227 bytes, 12 tensors)

encoder.0.weight f4 [64, 4]
0	0xbe373526	-0.17891368
1	0x3f330347	0.69926876
2	0x409866cc	4.7625484
3	0x4019c259	2.402487
4	0xbce7c8d9	-0.028294014
5	0x3f641e9f	0.89109224
6	0x409e3fd3	4.945291
7	0x40031fa0	2.0488052
8	0xbe2e57b4	-0.17025644
9	0x3f19eb77	0.60124916
10	0x3ff0087f	1.8752593
11	0x3f9f2a87	1.2434853
12	0x3e6228ac	0.22085828
13	0x3f562a3c	0.83658195
14	0x408c5f59	4.386639
15	0x3ffdfdcf	1.9843081
16	0x3f241f15	0.6410993
17	0xbf598975	-0.8497537
18	0xc04bc595	-3.1839345
19	0xbfb45142	-1.4087298
20	0x3ce3c089	0.027801769
21	0x3f3fddca	0.749478
22	0xbfc3abe7	-1.5286835
23	0xc07eadd2	-3.9793591
24	0x3f1fd480	0.62433624
25	0x3f384898	0.7198577
26	0xbfb0d416	-1.3814723
27	0xbe8d494c	-0.27594984
28	0x3f856106	1.0420234
29	0xbebe38ef	-0.37152812
30	0xc0165375	-2.3488438
31	0xbfa4b023	-1.2866253
32	0xbd2dfcf3	-0.04247756
33	0x3ee100e1	0.43945983
34	0x4099c0b9	4.8047757
35	0x3ff36a21	1.9016763
36	0xbd075ae7	-0.033045676
37	0x3e169af2	0.14707544
38	0xbf8ca805	-1.0988775
39	0x3c8d3929	0.01723917
40	0xbee6d462	-0.4508391
41	0xc01ac1ef	-2.4180868
42	0x3f9cb087	1.2241372
43	0x40131717	2.2982843
44	0xbfa01808	-1.2507334
45	0xbfbba04a	-1.4658291
46	0xc06f39b6	-3.7378974
47	0xbff4cc7f	-1.9124907
48	0x3ecb480c	0.39703405
49	0x3d6f00ea	0.05835048
50	0xbf757846	-0.9588665
51	0x3e290520	0.16505861
52	0x3dfa8e46	0.12234168
53	0xbcc60452	-0.024171982
54	0xbf2225f9	-0.6333919
55	0x3f0f7f48	0.5605359
56	0x3e503805	0.2033387
57	0x3f02aa4d	0.5104111
58	0x4098880a	4.7666063
59	0x40090d0d	2.1414216
60	0xbc550703	-0.01300216
61	0xbecb47eb	-0.39703307
62	0xbfbc4314	-1.4707971
63	0xbe33171c	-0.17489284
64	0x3f44c00d	0.76855546
65	0xc014bab0	-2.3238945
66	0x3f575f5c	0.8412988
67	0x4061bee1	3.5272753
68	0x3e98d6cd	0.2985138
69	0xbd4268cb	-0.04746322
70	0xbfb35cc8	-1.401269
71	0x3ce1fbc1	0.027585866
72	0x3e9cbdfe	0.30613703
73	0xbd225a89	-0.039637122
74	0xbf8a6efa	-1.0815117
75	0x3f67e4b0	0.90583324
76	0xbe835931	-0.25653985
77	0xbd4121ae	-0.04715126
78	0xbecce404	-0.40017712
79	0x3f267835	0.6502717
80	0x3ec7476d	0.3892168
81	0xbe190035	-0.14941485
82	0xbf8bbeb1	-1.0917569
83	0x3dc2f2d6	0.095189735
84	0x3ebb2a96	0.36555928
85	0x3e5a334e	0.21308634
86	0xbffd207f	-1.9775542
87	0xc054f88f	-3.3276708
88	0x3f2032cb	0.62577504
89	0xbf197a13	-0.59951895
90	0xbf881ec3	-1.0634388
91	0x3eeebae0	0.4662695
92	0x3bce151b	0.006289137
93	0xbce27fd3	-0.027648842
94	0xbd09e258	-0.033663124
95	0x3f6b28d8	0.918592
96	0x3f1c7d31	0.61128527
97	0x3fb0aa92	1.3802054
98	0x401cda02	2.4508061
99	0x3f8db0e6	1.106961
100	0xbeb86c91	-0.3602033
101	0x3f175b79	0.5912395
102	0x3d9df32a	0.077123955
103	0xbfec8f44	-1.8481221
104	0x3e0948c1	0.1340666
105	0x3f89e8b7	1.0774144
106	0x3f9140fc	1.1347957
107	0x3f8cb64a	1.099313
108	0x3d4ea1f0	0.050447404
109	0xbdbbba80	-0.091664314
110	0xbedf1e64	-0.43577874
111	0x3d5a19b0	0.053247154
112	0x3f267db8	0.6503558
113	0xbe10dd20	-0.14146852
114	0xbca91f11	-0.020644696
115	0x3ed855ed	0.42253056
116	0x3e87b3dd	0.26504412
117	0x3e511133	0.20416717
118	0xbf66026f	-0.89847463
119	0x3f1c76ad	0.61118585
120	0xbfb44f66	-1.408673
121	0x3e83e7be	0.25762743
122	0x4080eda7	4.0290103
123	0x3feda39b	1.8565553
124	0xbead48d8	-0.33844638
125	0xbc6580b8	-0.01400774
126	0x3e204c7a	0.15654173
127	0x3f21bc2f	0.6317777
128	0x3f759c66	0.9594177
129	0xbf11e96b	-0.5699679
130	0xbfe64591	-1.798998
131	0xbfacc0d1	-1.3496343
132	0x3e1f6dcc	0.15569228
133	0xbf479d20	-0.7797413
134	0xc045f6cf	-3.093189
135	0xbfb3c7c9	-1.4045345
136	0x3f3eb9a6	0.7450203
137	0xbdf610ab	-0.12014898
138	0xbfe77ff2	-1.8085921
139	0xbf3fdbd9	-0.74944836
140	0xbe3372bf	-0.17524241
141	0x3f247174	0.64235616
142	0x3e349486	0.17634782
143	0x3e818eef	0.25304362
144	0xbf8fd3da	-1.1236527
145	0x3e7c29af	0.24625276
146	0x40942a6a	4.6301775
147	0x3fdc8bd0	1.7230167
148	0x3f348faa	0.70531714
149	0x3ea65eba	0.32494146
150	0xbfa82a40	-1.3137894
151	0xbf1f5692	-0.6224147
152	0xbd119da9	-0.035550747
153	0xbecf1e67	-0.40452883
154	0xbf362900	-0.7115631
155	0xbe1925a6	-0.14955768
156	0x3e7ace44	0.24492747
157	0xc01834be	-2.3782191
158	0x3f89c6ef	1.0763835
159	0x4044bf3c	3.074172
160	0xbe88f22d	-0.26747265
161	0x3e8ea265	0.27858272
162	0xbf766299	-0.962442
163	0xbd35db72	-0.044398732
164	0xbfc4920c	-1.535707
165	0xc00998b8	-2.1499462
166	0xc0ae61dd	-5.449446
167	0xc0240b23	-2.5631797
168	0x3efd75cc	0.49503934
169	0xbebcda40	-0.36885262
170	0x40bd8b9b	5.9232917
171	0x401aa430	2.4162712
172	0x3cce4682	0.025180105
173	0x3d24962f	0.04018229
174	0x3d97d59e	0.07413791
175	0x3f579580	0.84212494
176	0x3e649e56	0.22326025
177	0x3e9cdd22	0.3063746
178	0xbe5069c8	-0.20352852
179	0x3f4a00c8	0.7890744
180	0x3f2dc319	0.6787582
181	0x3e201d14	0.15636092
182	0x409b3990	4.8507767
183	0x403bdee2	2.9354787
184	0x3f510e59	0.8166252
185	0x3d8a17b4	0.06742802
186	0xbfe7dfa0	-1.811512
187	0xbf4f047e	-0.8086623
188	0x3f02974b	0.51012105
189	0xbfb47b0f	-1.4100055
190	0xbfd7d0dc	-1.6860614
191	0x401db68f	2.4642675
192	0xbe7f76d6	-0.24947676
193	0xbe40cc9b	-0.18828051
194	0x3b08d97a	0.002088158
195	0x3f33cc63	0.70233744
196	0xbef06e2b	-0.4695905
197	0x3f0764c8	0.52888155
198	0xbf19ee07	-0.60128826
199	0x3dea4411	0.11438764
200	0xbd427d1f	-0.047482606
201	0x3f225193	0.6340572
202	0x3f52381c	0.82116866
203	0xc00e4d90	-2.223484
204	0x3f17f41d	0.5935686
205	0xbf7106d2	-0.9415103
206	0xbf70e9e4	-0.9410689
207	0x3fddfd32	1.7342894
208	0x3f01d94e	0.50722206
209	0x3e78dc36	0.24302754
210	0x3dc77d22	0.09740664
211	0x3ed409b2	0.41413647
212	0xbe0e4b06	-0.13895807
213	0xbe859a85	-0.26094452
214	0xbf854d52	-1.0414221
215	0x3d4dd84c	0.050255105
216	0xbe729d71	-0.23692872
217	0x3f2d111d	0.6760424
218	0xbf251e48	-0.6449933
219	0x3f323fb3	0.6962845
220	0x3e985674	0.29753458
221	0x3eee974e	0.4659981
222	0x4079e223	3.9044273
223	0x4009b594	2.1517076
224	0xbcbf1785	-0.023326645
225	0xbed803a3	-0.42190275
226	0xbf41cd0c	-0.757035
227	0xbe4d6717	-0.20058857
228	0xbf011431	-0.50421435
229	0x3ed58016	0.41699284
230	0xbf2345ef	-0.63778585
231	0xbd834f8a	-0.06411655
232	0x3de44800	0.111465454
233	0xbef6f1e2	-0.48231417
234	0xbff9b5ed	-1.9508644
235	0xbec186ef	-0.3779826
236	0xbe9acdd9	-0.30235174
237	0x3e906a05	0.28205886
238	0xbe1a3777	-0.1506022
239	0xbcfb405c	-0.030670337
240	0xbe044f0d	-0.1292078
241	0xbe40709e	-0.1879296
242	0xbf80427f	-1.0020293
243	0xbe8782f9	-0.26467112
244	0xbdfaa69d	-0.1223881
245	0xbfb0e6a7	-1.382039
246	0xc08b546a	-4.3540545
247	0xc00a6e14	-2.1629686
248	0xbe2d23ff	-0.16908263
249	0x3f083273	0.5320198
250	0x4042fd4c	3.04671
251	0x3f9ead3d	1.2396618
252	0xbe95ec9e	-0.29282087
253	0x3f0a2f18	0.5397811
254	0xbf89a974	-1.0754838
255	0x3edf9f01	0.43675998

encoder.0.bias f4 [64]
0	0x3f9faacd	1.2473999
1	0x3f7ed2a5	0.9954017
2	0x3fb6ae10	1.427187
3	0xbfdc71a2	-1.7222178
4	0x3f817025	1.0112349
5	0x3fac75f9	1.3473502
6	0x3f251455	0.6448415
7	0xbe48ba07	-0.19602214
8	0x3f87cbb2	1.0609038
9	0x3fb9db4d	1.452005
10	0xbf7802cc	-0.9687927
11	0xbf0806a7	-0.5313515
12	0x3fb67be9	1.4256564
13	0x3fbfb321	1.4976541
14	0xbf8fcda6	-1.1234634
15	0x3fb303df	1.3985556
16	0xbfc97eea	-1.5741856
17	0x3f862392	1.0479605
18	0x3fc396d8	1.5280409
19	0x3fb5fa53	1.4217018
20	0x3fac8b7e	1.348007
21	0x3fa7a392	1.3096793
22	0x3f80b834	1.0056214
23	0x3fda3c03	1.7049564
24	0x3ee943e4	0.4555961
25	0x3f387f90	0.72069645
26	0x3fb37e2a	1.4022877
27	0xbe8581f2	-0.26075703
28	0xbf375cc4	-0.71625924
29	0x3fb7b290	1.4351368
30	0x3f80af70	1.0053539
31	0x3fc919e4	1.5711026
32	0x3f40b88d	0.752816
33	0x3f8b03b0	1.08605
34	0x3f0c36c1	0.5477105
35	0x3f9d6c27	1.229863
36	0x3f680095	0.9062589
37	0x3f2394e8	0.6389909
38	0x3facd0ea	1.3501256
39	0xbfbe3afe	-1.4861753
40	0x3fb2fd08	1.3983469
41	0xbf39613a	-0.7241398
42	0xc001369b	-2.0189579
43	0x3fc354cb	1.5260252
44	0x3fcb1e8a	1.5868695
45	0x3fdc2a19	1.7200347
46	0x3f1be9a3	0.60903376
47	0xbf86500b	-1.0493177
48	0x3fcbb26b	1.5913824
49	0x3fad7357	1.3550824
50	0x3f543291	0.8288966
51	0xbf07d81f	-0.5306415
52	0x3faa4b7b	1.3304285
53	0x3fa7eb0b	1.3118604
54	0x3f9de857	1.233653
55	0x3f38d231	0.72195727
56	0x3faf89eb	1.3713964
57	0x3fcea6e8	1.6144686
58	0x3fb2fedf	1.398403
59	0x3f9f261f	1.2433509
60	0x3f90dc71	1.1317273
61	0xbf48860b	-0.78329533
62	0x3fcb3cbc	1.587791
63	0x3fbe42f1	1.4864179

encoder.2.weight f4 [64, 64]
0	0xbf5b0ac8	-0.85563326
1	0xbf963986	-1.1736305
2	0x3eddd610	0.4332738
3	0xc017ced9	-2.372
4	0xc00dedd8	-2.2176418
5	0x3e90a600	0.28251648
6	0xbf311c07	-0.6918339
7	0xc0035f1c	-2.05268
8	0xbf3e8843	-0.7442667
9	0x3f7079cb	0.9393584
10	0x3ec0c751	0.37652066
11	0xbfd3fd93	-1.656176
12	0x3f41d17a	0.7571026
13	0x3f4e4241	0.80569845
14	0xbfcf9fcd	-1.6220642
15	0x3fa57098	1.2924986
16	0x3ed8a7d0	0.4231553
17	0x3f20c8ed	0.6280659
18	0x3f0714df	0.5276622
19	0x3f76d095	0.9641202
20	0x3f2ea518	0.68220663
21	0x3db2e970	0.08735931
22	0x3f8c6463	1.0968136
23	0x3f374afb	0.71598786
24	0xbe726b2b	-0.23673694
25	0x3f329b93	0.6976864
26	0x3e0fe2fa	0.14051428
27	0x3dff52ba	0.12466951
28	0xbf4549c9	-0.7706571
29	0x3ef4cb0b	0.4781116
30	0xbffa064e	-1.9533174
31	0x3f7d9459	0.99054486
32	0xbf85d4f9	-1.0455619
33	0xbfcb0190	-1.5859852
34	0xbf5d9471	-0.8655463
35	0x3f3f6a0e	0.747712
36	0xc01fe335	-2.4982426
37	0xbf587a62	-0.8456174
38	0x3f95724f	1.1675509
39	0x3f099239	0.53738743
40	0x3f5b2315	0.85600406
41	0xc04968d9	-3.1470244
42	0xbed495c1	-0.41520503
43	0x3f3cc1c4	0.7373316
44	0x3f04dbfd	0.51898175
45	0xbe926e0b	-0.2859958
46	0xbf38b904	-0.7215731
47	0x3edb00c9	0.42774037
48	0x3f75dcd6	0.96040094
49	0x3f7735ad	0.9656628
50	0x3f18d507	0.59700054
51	0x3ef4198b	0.47675738
52	0x3eb3302c	0.3499769
53	0x3f92e82d	1.1477104
54	0x3f1db262	0.61600316
55	0xbf178a97	-0.59195846
56	0x3fab2f1f	1.3373755
57	0x3f8df4de	1.1090353
58	0x3f983769	1.189191
59	0x3f6a7fdb	0.9160134
60	0x3f752320	0.9575672
61	0xc04d3aaf	-3.2067068
62	0x3eaa8860	0.3330717
63	0x3f618d55	0.8810628
64	0xbdd5ed90	-0.10445702
65	0x3cdbbfe1	0.026824893
66	0x3d6f1865	0.058372874
67	0xbd39b6c7	-0.045340326
68	0xbdf72ae8	-0.120687306
69	0xbd2b6528	-0.041844517
70	0x3d999e48	0.07500893
71	0xbc169ef0	-0.009193167
72	0x3d5f5138	0.054520816
73	0xbdfc81ea	-0.12329467
74	0x3d4833e1	0.0488776
75	0xbde7c28b	-0.11316403
76	0xbd3cd76e	-0.046103887
77	0x3d7c0466	0.061527632
78	0xbdafa88d	-0.085770704
79	0xbd84e981	-0.0648985
80	0x3d1f0ba5	0.038829464
81	0xbd269080	-0.04066515
82	0xbdb61963	-0.08891561
83	0x3c3140f3	0.010818708
84	0xbd28f453	-0.04124863
85	0x3cd90b68	0.026494697
86	0xbc8a1eaa	-0.016860325
87	0x3cebf5bb	0.028803697
88	0x3d6115c8	0.054952413
89	0xbcc717b8	-0.024303302
90	0x3be99840	0.0071287453
91	0xbdfeb940	-0.124376774
92	0x3db31e80	0.08746052
93	0xbcbddca3	-0.023176497
94	0xbd6c0c6c	-0.057629034
95	0xbd910811	-0.07081617
96	0xbddbfa3a	-0.10741086
97	0xbc3ae7b0	-0.011407778
98	0x3cd7e2b0	0.02635321
99	0xbd8c7816	-0.06858842
100	0x3c8a1eb7	0.01686035
101	0xbd94ce52	-0.07265915
102	0xbd93d1ee	-0.07217775
103	0x3da74668	0.08167726
104	0x3dbd5b3a	0.09245916
105	0xbdcf77a0	-0.101302385
106	0xbd83aaee	-0.064290866
107	0x3ceec527	0.029146744
108	0xbd2684a1	-0.04065383
109	0xbd28d4fa	-0.041218735
110	0xbace4a00	-0.0015738606
111	0xbdd6b0c2	-0.104829326
112	0xbdd1d262	-0.102452055
113	0xbd181f4a	-0.037139215
114	0x3d97e0dc	0.074159354
115	0xbdb10fc6	-0.08645587
116	0xbc9ecb3a	-0.019384015
117	0x3c6382f2	0.0138862
118	0x3dd1d916	0.10246484
119	0x3c6705a0	0.014100462
120	0xbd41973f	-0.04726338
121	0xbdf76eaa	-0.12081654
122	0x3df6803c	0.120361775
123	0xbd4503b8	-0.04809925
124	0xbb357cc0	-0.0027692765
125	0x3d87f8a8	0.06639224
126	0xbbeb2df2	-0.007177108
127	0x3d1453ec	0.036212847
128	0xbf504b63	-0.8136503
129	0xbf88f69e	-1.0700262
130	0x3e548669	0.20754398
131	0xc03136a1	-2.7689593
132	0xc003e2e5	-2.0607235
133	0x3b9af257	0.004728596
134	0xbf2e567d	-0.6810072
135	0xc003ed8b	-2.0613735
136	0xbf863a14	-1.0486474
137	0x3f829d07	1.0204171
138	0xbd4b3cd7	-0.04961857
139	0xbffbc771	-1.967024
140	0x3f628a3c	0.8849218
141	0x3f7b95fd	0.9827574
142	0xbfbf6220	-1.495182
143	0x3fa1a284	1.2627721
144	0x3f03ecd1	0.5153323
145	0x3f59c2ad	0.85062677
146	0x3f6c0996	0.92202127
147	0x3f83a5d1	1.0284978
148	0x3f6969f6	0.9117731
149	0xbdbb2651	-0.09138168
150	0x3f962a51	1.1731664
151	0x3f43930c	0.7639625
152	0xbed0dcc0	-0.4079342
153	0x3f5c8b6c	0.8615024
154	0xbd511e5b	-0.05105434
155	0x3da40950	0.08009589
156	0xbf316f62	-0.6931058
157	0x3f43e8f6	0.76527345
158	0xbff0218b	-1.8760237
159	0x3f6017e6	0.87536466
160	0xbf3ebc95	-0.74506503
161	0xbfb8b2c8	-1.442956
162	0xbf4abd65	-0.79195243
163	0x3f1611c6	0.5862087
164	0xc020db99	-2.5134032
165	0xbf42ad16	-0.7604536
166	0x3f9cd008	1.2250986
167	0x3f166a2b	0.5875575
168	0x3f505e29	0.81393677
169	0xc05978e0	-3.3980026
170	0xbe856029	-0.26049927
171	0x3f2efbc8	0.6835294
172	0x3f3cc8ab	0.73743695
173	0xbe42710d	-0.18988438
174	0xbf2c1b5f	-0.67229265
175	0x3edd18ea	0.4318307
176	0x3f5cc517	0.86238235
177	0x3f4d2a96	0.80143106
178	0x3e6cf312	0.23139599
179	0x3efdbd0e	0.495583
180	0x3f1ae503	0.60505694
181	0x3f95bf83	1.169907
182	0x3f33b520	0.7019825
183	0xbf3e6c75	-0.7438424
184	0x3fa86598	1.3156004
185	0x3f6989f7	0.9122614
186	0x3fb0b19e	1.3804204
187	0x3f5057ef	0.81384176
188	0x3f8ead74	1.1146684
189	0xc038edf2	-2.889523
190	0x3dcba556	0.09943645
191	0x3f422149	0.7583204
192	0xbef2c0b0	-0.47412634
193	0xbe1088ca	-0.14114681
194	0xbe93b67a	-0.28850156
195	0xbcfed8a9	-0.031109171
196	0x3f534cde	0.82539165
197	0x3f25003c	0.6445348
198	0x3f0d3f68	0.55174875
199	0x3f9338a3	1.1501659
200	0xbf014a64	-0.50504136
201	0x3e4e7dc9	0.2016517
202	0x3f8a4b57	1.0804242
203	0x3faeaa0e	1.3645647
204	0x3ebcad6e	0.36851066
205	0x3de613bc	0.11234233
206	0x3e9dbc7f	0.30807874
207	0x3e1a793d	0.15085311
208	0x3ef9d171	0.48792604
209	0x3e954f32	0.29161984
210	0x3dc72a72	0.09724893
211	0x3da5cb6e	0.08095442
212	0x3e4e3734	0.20138246
213	0x3f113ea6	0.5673622
214	0x3ec885ff	0.3916473
215	0xbc051827	-0.008123434
216	0x3ea24f53	0.31701145
217	0x3f0d7333	0.55253905
218	0x3c9a335c	0.018823318
219	0x3df00c9c	0.11721155
220	0xbcc5dc1c	-0.024152808
221	0x3e55681e	0.20840499
222	0xc0250d99	-2.578955
223	0xbb80fbcd	-0.003936267
224	0x3f2e100c	0.67993236
225	0x3f1080a5	0.56446296
226	0x3f14ad6e	0.5807713
227	0x3c4b1fa2	0.012397679
228	0xc01cf209	-2.4522727
229	0x3f06ecdd	0.52705175
230	0x3e23b162	0.15985635
231	0x3f25cd17	0.6476607
232	0x3da8b833	0.08238258
233	0x3fb8221b	1.4385408
234	0x3dad6815	0.08467118
235	0xbc81bd53	-0.015837347
236	0x3e056660	0.13027334
237	0xbea6b24b	-0.32557902
238	0x3f31f2b3	0.69510955
239	0x3f3ad8e6	0.7298721
240	0xbceb04b9	-0.028688775
241	0xbd288f2f	-0.041152176
242	0x3ec719b7	0.38886806
243	0x3f33b007	0.7019047
244	0x3e79ce9a	0.24395218
245	0x3e318b7c	0.17338365
246	0xbccbe888	-0.024891153
247	0x3db0bf9b	0.08630296
248	0x3dceadbf	0.10091733
249	0xbc9e3978	-0.019314513
250	0x3e9d8bbe	0.30770677
251	0x3bffeecf	0.0078104506
252	0x3ec01303	0.37514505
253	0x3f9d5ce2	1.229397
254	0xbe2dc75c	-0.16970581
255	0xbc289661	-0.010289759

encoder.2.bias f4 [64]
0	0x3f5d7741	0.8651009
1	0xbb9786ae	-0.0046242094
2	0x3f8503ad	1.0391747
3	0x3e5db220	0.2164998
4	0x3f7fc3a8	0.9990792
5	0x3f61ce42	0.8820535
6	0xbe16e9ed	-0.14737673
7	0x3f869a05	1.0515753
8	0x3fd5babe	1.6697614
9	0x3f8331e7	1.0249604
10	0x3f899fe2	1.0751917
11	0x3f9a9aa7	1.2078446
12	0x3f979a8d	1.184404
13	0x3f92da43	1.1472858
14	0x3f8566e1	1.0422021
15	0x3f8d1def	1.102476
16	0x3f83c2b0	1.0293789
17	0x3f750f8c	0.9572685
18	0x3f62ac37	0.8854403
19	0x3e77d668	0.24202883
20	0x3f8f596d	1.1199166
21	0x3fccddae	1.6005151
22	0x3f89a988	1.0754862
23	0x3f9d2222	1.2276042
24	0x3f72d399	0.9485412
25	0xbe149b4e	-0.14512369
26	0x3f70bbe7	0.94036716
27	0xbdc50987	-0.09620958
28	0x3f596543	0.8492014
29	0xbd2f5ff1	-0.042816106
30	0x3d80d140	0.06289911
31	0x3b93a278	0.004505452
32	0x3f82c8fb	1.0217584
33	0x3f8efa7a	1.1170189
34	0x3f987131	1.1909543
35	0x3f80733d	1.0035168
36	0x3e85a271	0.26100495
37	0xbd9a8ace	-0.07546006
38	0x3f8690ef	1.051298
39	0x3f94a486	1.1612709
40	0x3f839089	1.0278484
41	0x3f886a67	1.0657471
42	0x3f8d1e9e	1.1024969
43	0xbdec5f58	-0.11541623
44	0x3f799158	0.974874
45	0x3f951daf	1.1649684
46	0x3f6a4dd2	0.91524994
47	0x3f98c2a0	1.1934395
48	0x3f6d1ad7	0.9261908
49	0x3fa063a8	1.2530413
50	0x3f81409e	1.0097845
51	0x3f89df15	1.0771204
52	0x3f89e856	1.0774028
53	0x3f6acaae	0.91715515
54	0x3f8747dc	1.0568805
55	0xbdaeec00	-0.08541107
56	0x3f81a0c7	1.012719
57	0x3f90e873	1.1320938
58	0x3e3ac51f	0.18239258
59	0xbcdf2bbd	-0.027242536
60	0x3d631180	0.05543661
61	0xbe00ee2d	-0.12590857
62	0x3fa363be	1.2764814
63	0xbe0f1300	-0.13972092

logits_t.0.weight f4 [32, 64]
0	0xbdf01ae9	-0.11723883
1	0x3d2f87c8	0.0428541
2	0xbde35782	-0.11100675
3	0xbbf6cc00	-0.007531643
4	0xbdd52520	-0.10407472
5	0x3d2a2f10	0.04154879
6	0xbdc38e42	-0.09548618
7	0x3b5d84dc	0.0033801114
8	0xbdb0717a	-0.08615394
9	0x3dab176f	0.08354079
10	0xbdbea4ca	-0.09308775
11	0xbd4ff187	-0.050767448
12	0xbe04558d	-0.1292326
13	0x3c9de3dd	0.019273693
14	0x3c28e6e9	0.0103089595
15	0xbcf44089	-0.029815929
16	0xbddd572f	-0.108076446
17	0xbdfa308d	-0.122162916
18	0x3d6a5cf6	0.05721756
19	0x3dda02e4	0.106450826
20	0xbc6cfb8f	-0.014464273
21	0xbc35c6c9	-0.011094757
22	0x3d8b3f2a	0.06799157
23	0xbe31786e	-0.17331097
24	0xbd0dd62c	-0.03462808
25	0xbdb99a2e	-0.090626106
26	0x3d1f1575	0.038838822
27	0x3db9133e	0.09036873
28	0xbd6e15f9	-0.058126424
29	0x3d171510	0.03688532
30	0xbd90c6cc	-0.070691675
31	0x3ccae2c8	0.02476634
32	0xbdfa4a53	-0.122212075
33	0xbcaad0f0	-0.020851582
34	0xbda266e9	-0.07929785
35	0x3c274a75	0.010210623
36	0x3d4b35a4	0.049611703
37	0xbdb584b2	-0.088632
38	0x3d4ee592	0.050511904
39	0xbe17e40c	-0.14833087
40	0xbe2bef6e	-0.16790554
41	0xbdbae41a	-0.09125538
42	0xbb9ddfe7	-0.004817951
43	0x3d9e4432	0.07727851
44	0x3c470ec5	0.012149517
45	0x3dcbec02	0.09957124
46	0xbdef6b12	-0.11690344
47	0xbd6612e1	-0.056170348
48	0xbd5d3933	-0.054009628
49	0xbd9a4fb8	-0.075347364
50	0x3bf61240	0.0075095
51	0xbd24902b	-0.04017655
52	0x3d0ccd09	0.034375224
53	0xbde65f6e	-0.112486705
54	0xbe30b5e3	-0.17256884
55	0xbdc65e2e	-0.09685932
56	0xbd0676d5	-0.03282817
57	0xbe0ecb5e	-0.13944766
58	0xbde31084	-0.110871345
59	0xbcbcf798	-0.02306728
60	0xbdf3422e	-0.11877857
61	0x3c74ef20	0.01494959
62	0xbe10e5fb	-0.1415023
63	0xbdd758a3	-0.10514953
64	0xbd61e6db	-0.0551518
65	0x3cb46d00	0.022024632
66	0xbda4fe83	-0.08056357
67	0x3dcfedb2	0.10152759
68	0x3e7a92f8	0.24470127
69	0xbcc17725	-0.023616383
70	0x3deea4c9	0.11652524
71	0xbc7432cc	-0.014904689
72	0x3e85941e	0.26089567
73	0x3d787c2a	0.060665287
74	0x3e7b5d1e	0.2454724
75	0x3cbb8201	0.02288914
76	0x3d85bf06	0.065305755
77	0xba8816aa	-0.0010382731
78	0x3e8601d2	0.26173264
79	0xbc9dfbe7	-0.019285155
80	0xbd84b3b2	-0.06479587
81	0xbe1d9acf	-0.15391086
82	0x3d9a2fd0	0.07528651
83	0x3e2ca5a0	0.16860056
84	0x3d9557b7	0.07292121
85	0xbca64e8e	-0.02030113
86	0x3e1939e3	0.14963488
87	0x3e83f37c	0.257717
88	0x3d70e07a	0.058807828
89	0xbd8d473b	-0.06898352
90	0xbd555f96	-0.05209311
91	0xbd892447	-0.066963725
92	0x3e419cb4	0.18907434
93	0xbd8d33ca	-0.068946436
94	0xbd013250	-0.031542122
95	0xbdf839fa	-0.12120433
96	0x3e72e500	0.23720169
97	0x3d8eeedb	0.06979152
98	0xbcefe1a8	-0.029282406
99	0x3e03af7a	0.12859908
100	0xbf251958	-0.64491796
101	0xbc3558b6	-0.011068514
102	0x3e085108	0.13312161
103	0x3d851b1c	0.06499311
104	0x3ead3d49	0.3383582
105	0x3d22e5af	0.039769825
106	0x3b851d20	0.00406231
107	0xbd94a877	-0.072586946
108	0xbebda960	-0.37043285
109	0xbebe551e	-0.37174314
110	0xbd2280dc	-0.03967367
111	0xbe3b0069	-0.18261875
112	0xbeb8a00c	-0.36059606
113	0x3e778bae	0.24174377
114	0x3d9ba788	0.076003134
115	0xbe6fd47c	-0.234209
116	0x3e1a241c	0.15052837
117	0xbe109f33	-0.1412323
118	0xbd7d4935	-0.061837394
119	0x3de307a4	0.11085442
120	0x3d9aeb12	0.07564367
121	0xbe3e5a34	-0.18589097
122	0xbd9c03c5	-0.076179065
123	0xbd0849af	-0.033273395
124	0xbd403438	-0.0469248
125	0x38acf800	8.247793e-05
126	0x3e9deb53	0.308436
127	0x3e61c260	0.22046804
128	0x3d8c129f	0.06839489
129	0xbde17774	-0.11009112
130	0x3da9a58a	0.08283527
131	0x3d4c0208	0.049806625
132	0xbbbb9b29	-0.0057252836
133	0x3c003a5b	0.007826413
134	0x3df3cdbc	0.11904475
135	0xbdf31d41	-0.11870814
136	0xbd91699d	-0.07100222
137	0x3c592064	0.013252351
138	0x3a0575f8	0.0005091126
139	0x3caca164	0.02107305
140	0x3d6f52ac	0.05842845
141	0x3db0fed6	0.08642356
142	0xbd4ef59f	-0.05052721
143	0x3db0414d	0.08606205
144	0xbba87e38	-0.0051419996
145	0x3b43a7e5	0.0029854712
146	0x3bfe3550	0.00775782
147	0x3d04e930	0.032448947
148	0x3c04afa1	0.008098514
149	0x3d0381fe	0.032106392
150	0x3dbdc9c1	0.09266997
151	0xbc8defe6	-0.017326307
152	0xbb88194f	-0.0041534076
153	0xbd87402c	-0.06604037
154	0x3db2993f	0.087206356
155	0x3c0f3560	0.008740753
156	0xbd84fed6	-0.064939186
157	0x3dbe0874	0.09278956
158	0x3bf2e067	0.0074120048
159	0xbcf8a368	-0.030351356
160	0xbe0718c2	-0.13193038
161	0x3d9907ab	0.07472166
162	0x3c73c199	0.0148777
163	0xbc9304b5	-0.01794658
164	0xbd3751c8	-0.044755727
165	0xbdf9952e	-0.12186657
166	0xbdc2141f	-0.09476494
167	0xbd1b52dd	-0.03792082
168	0xbd9e8011	-0.077392705
169	0xbc988756	-0.01861922
170	0xbd9735c5	-0.073833026
171	0x3d6cdc98	0.057827562
172	0x3cfc82ad	0.03082403
173	0xbd0d8c6e	-0.034557752
174	0xbda6afa9	-0.08138973
175	0xbdb866bb	-0.09003969
176	0xbd1c669e	-0.0381838
177	0x3dc23373	0.094824694
178	0xbd9a25af	-0.07526719
179	0x3d100a70	0.035166204
180	0x381ba9d8	3.711306e-05
181	0xbd5a2524	-0.053258076
182	0x3ca9d6a9	0.02073224
183	0x3d950e52	0.07278122
184	0xbe0f2c3a	-0.13981715
185	0x3d2b6e50	0.04185325
186	0xbdabb236	-0.083836004
187	0x3dbc6e22	0.09200694
188	0x3d4aec58	0.0495418
189	0xbde2f2fc	-0.11081502
190	0xbd1b6460	-0.037937522
191	0xbd41e6d0	-0.04733926
192	0xbe0c8c29	-0.13725342
193	0xbde302ea	-0.1108454
194	0xbe1004d0	-0.14064336
195	0x3d984fb7	0.074370794
196	0x3daecdf0	0.08535373
197	0x3d910441	0.070808895
198	0x3d4c90b8	0.049942702
199	0x3cfc4f28	0.030799463
200	0x3c42f7e9	0.011899927
201	0xbda4fd51	-0.08056129
202	0xbd5f3987	-0.05449822
203	0x3cb6547e	0.022257086
204	0x3b4638d0	0.0030246265
205	0xbc82c710	-0.015964061
206	0x3dc1368f	0.09434234
207	0x3d7ae119	0.061249826
208	0x3c09cf2c	0.00841121
209	0x3ab5cc7e	0.0013870148
210	0xbe01c44a	-0.12672535
211	0xbde82c0c	-0.11336526
212	0xbdc1ce9c	-0.09463236
213	0x3ced3801	0.028957369
214	0xbd6b5408	-0.057453185
215	0xbc9869c7	-0.018605126
216	0xbd8e830d	-0.0695859
217	0x3da23370	0.07919967
218	0x3dc3ecc2	0.09566642
219	0x3dc04bda	0.093894675
220	0xbdb6d2f9	-0.089269586
221	0x3cc288b8	0.023746833
222	0xbdc0206a	-0.093811825
223	0xbddd18be	-0.10795735
224	0x3dbeaacb	0.0930992
225	0xbd0bbbdd	-0.034114707
226	0xbdebdd1f	-0.11516785
227	0xbd781fea	-0.06057731
228	0x3cdaefaa	0.026725609
229	0x3dabe73e	0.08393715
230	0xbe017957	-0.12643944
231	0xbd9db516	-0.07700555
232	0xbbc7a62d	-0.0060928077
233	0x3d4266db	0.047461372
234	0xbd161afe	-0.036646836
235	0x3d4295b0	0.047506034
236	0xbd45ea62	-0.048319228
237	0x3c3a19c1	0.011358679
238	0x3c996e0f	0.018729238
239	0xbdfdda36	-0.12395136
240	0xbceb8001	-0.02874756
241	0x3cdbc491	0.026827129
242	0x3dd7cc5e	0.10537027
243	0x3d214b71	0.039378587
244	0x3cb24488	0.021761194
245	0x3c3b74a4	0.0114413835
246	0xbbc97243	-0.0061476543
247	0x3d6b3bb8	0.05743
248	0xbdc53911	-0.09630025
249	0x3cfefecd	0.031127358
250	0xbddab2d9	-0.10678644
251	0xbdf4b146	-0.11947875
252	0x3dd3817e	0.10327433
253	0xbd96c842	-0.07362415
254	0x3da8aef3	0.08236494
255	0xbe066d37	-0.131276

logits_t.0.bias f4 [32]
0	0xbcd6c4cc	-0.026216887
1	0x3ea0492b	0.31305823
2	0xbe055cae	-0.13023636
3	0x3ba88c76	0.0051436974
4	0x3e944cc8	0.2896483
5	0x3d95f848	0.073227465
6	0xbfa2e67e	-1.2726591
7	0xbd8ae65b	-0.06782218
8	0x3f80e88b	1.0070966
9	0xbd272f73	-0.040816735
10	0xbf1494be	-0.5803946
11	0x3e1b5d95	0.15172417
12	0xbfbc0d18	-1.4691496
13	0x3dd2ad29	0.10286934
14	0x3f9b3276	1.2124774
15	0xbe2a3cfb	-0.16624825
16	0x3eb59875	0.35467878
17	0x3f015a4e	0.5052842
18	0xbee755af	-0.4518256
19	0x3f4aaa2c	0.7916591
20	0x3f8873fa	1.0660393
21	0x3de6964f	0.11259138
22	0xbf2a8fce	-0.6662568
23	0xbf8285a9	-1.019704
24	0xbc6f8223	-0.014618429
25	0xbdb10774	-0.08644
26	0xbdf631f9	-0.1202125
27	0x3f890fd6	1.0707958
28	0x3f474f9d	0.77855855
29	0x3d969a0c	0.07353601
30	0xbe02506c	-0.12725991
31	0xbdfecc42	-0.12441303

logits_t.2.weight f4 [2, 32]
0	0x3e01137a	0.12605086
1	0x3fa4f865	1.2888304
2	0xbde75fe1	-0.11297584
3	0xbcb7ab3a	-0.022420514
4	0xbd7b41da	-0.061342098
5	0xbde5d332	-0.11221923
6	0xbe9ce08e	-0.30640072
7	0xbf163a16	-0.5868238
8	0x3e7949b1	0.24344517
9	0x3dc4d8b6	0.09611647
10	0xbe58eb7e	-0.21183583
11	0x3fa1fb40	1.26548
12	0xbec625cb	-0.3870071
13	0x403b0a17	2.9224908
14	0x3e81ba77	0.25337574
15	0xbec25719	-0.37957075
16	0xbc407427	-0.011746443
17	0x3e236c7b	0.15959351
18	0x3eeca701	0.46221164
19	0x3f365ee2	0.7123853
20	0x3e0dd10f	0.13849281
21	0x3f782fc4	0.96947885
22	0xbeae57cb	-0.34051356
23	0xbecec88a	-0.40387374
24	0xbe173e1b	-0.14769785
25	0xbef9e140	-0.48804665
26	0x3d1f69ef	0.038919386
27	0x3e3b1074	0.18267995
28	0x3f1921ff	0.598175
29	0x3d9cefc6	0.07662921
30	0xbcec2aa7	-0.028828932
31	0xbd92d6f0	-0.07169902
32	0x3d7a17d7	0.06105789
33	0xbfa21965	-1.2664
34	0xbd91891c	-0.0710623
35	0x3daf9cd5	0.08574835
36	0xbdb36dcc	-0.087611765
37	0x3d4c4344	0.049868837
38	0x3e8f8188	0.28028512
39	0x3f2a12ce	0.66434944
40	0xbe5dcaab	-0.21659343
41	0x3e19599d	0.14975591
42	0x3e7d9af8	0.24766147
43	0xbf937026	-1.15186
44	0x3ec3b001	0.38220218
45	0xc043f6b4	-3.0619326
46	0xbe907c54	-0.28219855
47	0x3ead3600	0.3383026
48	0xbd8902d8	-0.066899955
49	0xbcf25d26	-0.029585432
50	0xbeee4183	-0.46534356
51	0xbf358bf4	-0.70916677
52	0xbdc652cf	-0.09683763
53	0xbf58c620	-0.84677315
54	0x3ea5f579	0.32413843
55	0x3ed2914f	0.41126487
56	0x3d0f0cdd	0.034924377
57	0x3f0e4f12	0.555894
58	0x3e1cfff3	0.15332012
59	0xbe5337e3	-0.20626788
60	0xbf18274a	-0.5943495
61	0x3dddab1a	0.10823651
62	0xbd9c5485	-0.07633308
63	0xbd85de21	-0.06536508

logits_t.2.bias f4 [2]
0	0xbdb0d95b	-0.08635207
1	0x3dcb954e	0.09940587

fc.0.weight f4 [128, 256]
0	0x3f965dce	1.1747377
1	0x3d44733e	0.047961466
2	0x3f75337f	0.957817
3	0x3eb9d4b0	0.3629508
4	0x3f73fa81	0.95304114
5	0x3f7ba7f4	0.9830315
6	0xbcd1d268	-0.025613025
7	0x3f85dd65	1.0458189
8	0x3cece374	0.028917052
9	0x3f45e271	0.7729865
10	0x3f7c2110	0.9848795
11	0x3f31641d	0.69293386
12	0x3f5cdbcd	0.8627289
13	0x3f602033	0.8754913
14	0x3f8d30a8	1.1030474
15	0x3f61ff33	0.8828003
16	0x3f63ef97	0.8903746
17	0x3f822d4f	1.0170077
18	0x3f6f1945	0.93397933
19	0xbf710e2f	-0.9416227
20	0x3f4b8258	0.79495764
21	0x3f4eb8d6	0.8075079
22	0x3f756648	0.95859194
23	0x3f519583	0.8186876
24	0x3f6fd2d1	0.93681055
25	0xbc8fd962	-0.01755971
26	0x3f910d79	1.1332237
27	0x3cded6c5	0.02720202
28	0x3f838f0d	1.0278031
29	0xbd43ee37	-0.0478346
30	0x3da18bad	0.07887969
31	0x3d680216	0.056642614
32	0x3f8249d1	1.0178777
33	0x3f832117	1.0244473
34	0x3f40b756	0.7527975
35	0x3f6a5f43	0.9155161
36	0x3f23f735	0.64049083
37	0x3c4a0480	0.012330174
38	0x3f61f143	0.8825876
39	0x3f5bd8aa	0.8587748
40	0x3f66321c	0.8992021
41	0x3f7443d3	0.9541599
42	0x3f46b550	0.7762041
43	0x3d18ef90	0.03733784
44	0x3fc8f794	1.5700555
45	0x3f61fed4	0.8827946
46	0x3f8491d5	1.0357004
47	0x3f391673	0.7229988
48	0x3fdfc224	1.7481122
49	0x3f43b75f	0.7645168
50	0x3f7d6603	0.9898378
51	0x3f89a53f	1.0753554
52	0x3f49e594	0.78865933
53	0x3f98062e	1.1876886
54	0x3f5cca69	0.86246353
55	0xbd19e8f6	-0.037575684
56	0x3f8ce482	1.1007235
57	0x3f64832e	0.89262664
58	0x3f74ff52	0.9570209
59	0x3b47bd5b	0.0030477855
60	0xbce6e214	-0.028183974
61	0x3c33d050	0.010974959
62	0x3f419d0f	0.7563028
63	0x3f3850a1	0.7199803
64	0x3fd7835e	1.6836965
65	0xbd2c24ce	-0.042027287
66	0x3faabb13	1.333834
67	0x3db4f822	0.0883639
68	0x3f95ceb7	1.1703709
69	0x3faa7146	1.3315818
70	0xbcbfb817	-0.02340321
71	0x3fafb6c2	1.3727648
72	0x3e404d55	0.187795
73	0x3f851e0b	1.0399793
74	0x3fbb6fce	1.4643495
75	0x3f897e90	1.0741749
76	0x3f99696c	1.1985297
77	0x3f92fa84	1.1482701
78	0x3fb511ea	1.4146092
79	0x3f9f0f31	1.2426511
80	0x3faec401	1.3653566
81	0x3fb45bd9	1.409053
82	0x3fa8f87d	1.3200833
83	0xbf1f963a	-0.623386
84	0x3f9a03b2	1.2032378
85	0x3f856580	1.04216
86	0x3fa48aae	1.2854822
87	0x3f897ffa	1.074218
88	0x3f9e2556	1.2355144
89	0x3c3baee0	0.011455268
90	0x3fbff19a	1.4995606
91	0xbc888d6c	-0.016668998
92	0x3f97d7fc	1.1862788
93	0x3c573293	0.013134616
94	0x3c1c8fb0	0.009555742
95	0x3d4b4e6a	0.04963533
96	0x3faf3222	1.3687174
97	0x3faaaae7	1.3333405
98	0x3f6302bc	0.8867605
99	0x3f9cac7e	1.224014
100	0x3f6f517e	0.9348372
101	0x3d8d0d95	0.06887356
102	0x3f9b4995	1.213183
103	0x3f9336f1	1.1501142
104	0x3f9b02f6	1.2110279
105	0x3fa3fe42	1.2811968
106	0x3f8f9888	1.1218424
107	0x3d388655	0.045049984
108	0x3fe207c7	1.7658623
109	0x3f7d0050	0.988286
110	0x3f9bc186	1.2168434
111	0x3f6badc4	0.9206202
112	0x3ff73411	1.9312764
113	0x3f90bb93	1.1307243
114	0x3fc061c2	1.5029833
115	0x3fb1f835	1.3903872
116	0x3f8bef45	1.0932394
117	0x3fd01466	1.6256225
118	0x3f9425a3	1.1573986
119	0x3db9f0b8	0.090791166
120	0x3fc573de	1.5425985
121	0x3f9d0899	1.2268249
122	0x3f8d9e89	1.1064006
123	0x3c9e9710	0.019359142
124	0x3af4b640	0.0018670037
125	0x3d38ce55	0.04511865
126	0x3f8b5ba9	1.0887347
127	0x3fb6f4a7	1.4293412
128	0x4011a7c6	2.275865
129	0xbc002a18	-0.007822536
130	0x3fe879e3	1.8162197
131	0x3e15db9d	0.14634557
132	0x3fbce2c1	1.47567
133	0x3fe55877	1.7917622
134	0x3b63b7f0	0.0034747086
135	0x3ff986e2	1.9494288
136	0x3e852038	0.26001143
137	0x3fd280b1	1.6445524
138	0x4005866b	2.0863292
139	0x3fbad22a	1.4595387
140	0x3fce91d3	1.6138252
141	0x3fc45d1f	1.5340918
142	0x3fec64af	1.8468226
143	0x3fcfc7ad	1.6232811
144	0x3ff5aad9	1.9192764
145	0x3ff9370f	1.9469928
146	0x3ff44875	1.9084612
147	0xbfb89dd8	-1.442317
148	0x3fd83906	1.6892402
149	0x3f53e701	0.8277436
150	0x3ff169d2	1.8860419
151	0x3fb2003b	1.390632
152	0x3fe95d63	1.8231624
153	0x3d8b81dd	0.06811879
154	0x40087373	2.1320465
155	0x3c8420be	0.016128894
156	0x3fce02ff	1.6094664
157	0x3d9e3674	0.0772523
158	0xbc87ed4c	-0.016592644
159	0x3bcde5d6	0.006283502
160	0x3fe147c4	1.7600026
161	0x3fe3abf7	1.7786855
162	0x3f9f14bb	1.2428201
163	0x3fd94779	1.6974937
164	0x3f2e325d	0.680456
165	0xbd5154fe	-0.051106445
166	0x3fdecb0e	1.7405717
167	0x3fcc4a63	1.5960201
168	0x3fd9090d	1.6955887
169	0x3ff1d671	1.8893567
170	0x3fbf0873	1.4924453
171	0x3c64af44	0.013957802
172	0x3fd33c34	1.6502748
173	0x3f1de0aa	0.61670935
174	0x3fa54d18	1.2914152
175	0x3f75151c	0.95735335
176	0x3fe39e14	1.7782617
177	0x3fb8c730	1.4435787
178	0x4003347c	2.0500784
179	0x4000c4f1	2.0120203
180	0x3fd26ba4	1.6439099
181	0x401320fc	2.2988882
182	0x3fcf0073	1.6172012
183	0x3c70a090	0.014686719
184	0x400a3621	2.1595538
185	0x3fc75141	1.5571672
186	0x3f6cf313	0.925584
187	0x3a2332a0	0.00062255
188	0x3cc2030c	0.023683093
189	0x3d616b5c	0.055034027
190	0x3fb6fe4e	1.4296358
191	0x3f8fd222	1.1236002
192	0x409df62a	4.9362993
193	0x3ca8b314	0.020593204
194	0x408f124c	4.4709835
195	0xbea6c1c6	-0.32569712
196	0x40758134	3.836011
197	0x408f05b1	4.4694448
198	0x3d9d9850	0.07695067
199	0x40a0583e	5.0107718
200	0x4087f32d	4.2484345
201	0x408eb0ea	4.459096
202	0x409dcc00	4.9311523
203	0x4087ccd1	4.243752
204	0x4098fc28	4.780781
205	0x4091cac7	4.556003
206	0x408a7155	4.3263345
207	0x40942aa4	4.630205
208	0x40931b1e	4.59706
209	0x409eb6b2	4.9598017
210	0x409f546e	4.9790564
211	0xbfdfc614	-1.7482324
212	0x40973fd9	4.726544
213	0xbf9aee28	-1.210393
214	0x4099c036	4.8047132
215	0x40820b49	4.0638776
216	0x408d68a3	4.419023
217	0x3cb65919	0.022259282
218	0x40a1d16f	5.0568156
219	0xbcfe46db	-0.031039646
220	0x3fc6ae25	1.5521895
221	0xbb8773db	-0.004133684
222	0x3d3eef62	0.046615012
223	0x3ce68474	0.02813933
224	0x408199b6	4.0500135
225	0x408dfbdf	4.436996
226	0x4088a53c	4.27017
227	0x40960aa3	4.6887984
228	0xbf2a58a8	-0.6654153
229	0x3d543994	0.051812723
230	0x4088d702	4.276246
231	0x40938a4b	4.6106315
232	0x409175bd	4.5456223
233	0x409bdf35	4.870997
234	0x408cc80a	4.399419
235	0x3cc00081	0.02343774
236	0x3f8a1647	1.0788049
237	0xbfad9821	-1.3562051
238	0x3f83fdc3	1.0311817
239	0x3ed7a76a	0.42119914
240	0x3fa0f59a	1.2574952
241	0x40899507	4.299442
242	0x409ebd9b	4.960645
243	0x409bf291	4.87336
244	0x40955d90	4.667671
245	0x4098e007	4.777347
246	0x4093ad13	4.614877
247	0x3d3933c4	0.045215383
248	0x409c73e6	4.8891478
249	0x408dbd58	4.4293633
250	0xbfb585bd	-1.4181439
251	0xbd87c476	-0.06629269
252	0x3c05a350	0.0081566125
253	0xb96c50f3	-0.0002253687
254	0x4090869e	4.516433
255	0xbfce130d	-1.6099564

fc.0.bias f4 [128]
0	0x3f0a8af6	0.5411829
1	0xbe0610fe	-0.1309242
2	0x3eb101b1	0.34571603
3	0x3bea4abe	0.0071500232
4	0xbd44ecc1	-0.04807735
5	0x3eb8f414	0.36123717
6	0xbd99ef1a	-0.07516308
7	0x3ea827cd	0.32842866
8	0xbd3e9727	-0.04653087
9	0x3d23d5dd	0.039998878
10	0x3e45e999	0.19327392
11	0x3edea884	0.43487942
12	0xbeaa8f4a	-0.33312446
13	0x3ec41616	0.382981
14	0xbde39ccb	-0.1111389
15	0x3f9c47b3	1.2209381
16	0x3ea9fb5a	0.3319958
17	0xbd840189	-0.06445605
18	0xbc659c47	-0.01401431
19	0x3eb4544d	0.35220566
20	0x3e9b938c	0.30386007
21	0x3eacd85d	0.33758822
22	0x3f278fe7	0.6545395
23	0x3eb1b841	0.34710887
24	0x3c6b06bd	0.014344868
25	0x3eeb6ae6	0.45979995
26	0x3c8b2b15	0.016988317
27	0x3c1b24ec	0.009469252
28	0xbcef9b3c	-0.029248826
29	0x3eda9e8b	0.42699084
30	0x3fd57d3f	1.6678847
31	0x3ed680f4	0.41895258
32	0x3ec91fc5	0.3928205
33	0x3ede7360	0.434474
34	0xbd31ec47	-0.043438222
35	0x3ebdcd63	0.3707076
36	0xbc90a281	-0.017655613
37	0x3e8c8d0b	0.27451357
38	0x3ecd0c7d	0.4004859
39	0x3c206bed	0.0097913565
40	0x3ee6ec30	0.45102072
41	0x3c06207d	0.008186457
42	0x3edeea07	0.43537924
43	0x3ef2b1bb	0.47401223
44	0x3ee1979c	0.4406098
45	0x3eca6a85	0.39534393
46	0x3ee64d45	0.44980827
47	0x3ef4b3d9	0.47793463
48	0x3e9c923d	0.3058032
49	0x3e43b508	0.19112027
50	0xbcba35d3	-0.022730744
51	0xbc660b33	-0.014040756
52	0x3d06a2b3	0.032870006
53	0x3ecf69d0	0.40510416
54	0x3d003b90	0.031306803
55	0x3e97b6b6	0.29631585
56	0x3fdb6946	1.7141502
57	0xbec608cb	-0.38678584
58	0x3eaa7b2f	0.33297107
59	0xbde2dc02	-0.110771194
60	0x3ea9cb75	0.33163038
61	0x3ecb96b4	0.39763415
62	0x3ebef8bf	0.37299153
63	0x3ea6f027	0.32605097
64	0x3ec83b37	0.39107677
65	0xbc9f8b1c	-0.019475512
66	0x3ed7fa10	0.4218297
67	0xbdd00cd6	-0.10158698
68	0xbc8dd005	-0.017311106
69	0x3e870b88	0.26375985
70	0x3c8ada79	0.016949879
71	0xbcd1c08b	-0.025604507
72	0xbd065593	-0.032796454
73	0x3ec9661f	0.39335725
74	0xbd4baa2a	-0.049722828
75	0x3fcf5a89	1.6199504
76	0x3e8d6f7c	0.27624118
77	0x3eab6b7c	0.33480442
78	0x3eae01f5	0.33985868
79	0xbd5be248	-0.053682595
80	0xbd1a8d3f	-0.03773236
81	0x3ec74a50	0.38923883
82	0xbc86f824	-0.016475745
83	0x3e8baa54	0.27278388
84	0x3e79e85f	0.24405049
85	0x3fe1e3ca	1.7647641
86	0x3ece8860	0.4033842
87	0x3ec7cfeb	0.39025816
88	0x3d15ce77	0.036573853
89	0x3d1eba59	0.038751934
90	0x3eecda4c	0.46260297
91	0x3e8903f7	0.26760837
92	0xbc9497c4	-0.018138774
93	0x3c4911d0	0.012272313
94	0x3eaefb2c	0.34176004
95	0x3ec52693	0.38505992
96	0x3f7d28ed	0.9889057
97	0xbeb79439	-0.35855272
98	0x3ec87e84	0.39159024
99	0xbc83a9eb	-0.016072234
100	0x3ed4d0bb	0.415655
101	0x3eb34ede	0.35021108
102	0x3ed1d861	0.40985397
103	0x3cf29b02	0.02961493
104	0x3b99d6a6	0.0046947775
105	0x3ea905ec	0.3301233
106	0xbda041d2	-0.07825054
107	0x3eddaa27	0.43293878
108	0x3edcc69d	0.4312028
109	0x3ec140f6	0.37744874
110	0x3ea67200	0.3250885
111	0xbdd21f62	-0.10259892
112	0x3ced229c	0.028947167
113	0xbd52b905	-0.05144598
114	0xbc840b99	-0.016118811
115	0x3d13ce9c	0.03608571
116	0xbc0a1c94	-0.008429665
117	0x3f602327	0.8755364
118	0x3ee3d6db	0.4449986
119	0x3ebe1a2c	0.37129343
120	0xbc90c927	-0.017674042
121	0xbd0d130b	-0.03444199
122	0x3fcc0584	1.5939183
123	0x3ebd3363	0.36953267
124	0x3ee57828	0.44818234
125	0x3e9140d0	0.2836976
126	0x3cd492e7	0.025948955
127	0x3bcdd790	0.0062818006

fc.2.weight f4 [2, 128]
0	0x4003f619	2.0618956
1	0xbe9cef52	-0.30651337
2	0x3ff2c70b	1.8966993
3	0xbc72bd5e	-0.0148156565
4	0xbd143db4	-0.036191657
5	0x3fc9cb11	1.5765096
6	0xbbb5ed12	-0.0055519426
7	0x3fd74677	1.6818379
8	0x3d25b0af	0.0404517
9	0x39e84926	0.00044304988
10	0x3f88711a	1.0659516
11	0x40662703	3.596131
12	0x3fc9239b	1.5713991
13	0x3ff8c0dc	1.9433856
14	0xbd290df2	-0.041273065
15	0xc07e3392	-3.9718976
16	0x40161227	2.344858
17	0xbd960a3e	-0.07326172
18	0x3d2e27fe	0.04251861
19	0x3fe9050f	1.8204669
20	0x405a8b57	3.4147546
21	0x405a3602	3.4095464
22	0xc03bb93e	-2.9331813
23	0x4025a0fc	2.5879507
24	0x3d88ea42	0.06685306
25	0x3ffc10fe	1.9692686
26	0x3b3317cf	0.0027327423
27	0xbd8e6650	-0.06953108
28	0x3d5189e8	0.05115691
29	0x3ffb7b02	1.9646914
30	0xc01b6169	-2.4278204
31	0x3fde63ef	1.7374247
32	0x3ff55ac5	1.9168326
33	0x4003ca1b	2.0592105
34	0x3c62997f	0.013830542
35	0x3fce6476	1.6124408
36	0x3b484e6e	0.0030564326
37	0x3fc338cc	1.5251708
38	0x3fe709cd	1.8049866
39	0xbcc20c7b	-0.023687592
40	0x3fd3caf6	1.6546314
41	0x3d3f394e	0.04668551
42	0x3fde99b6	1.7390659
43	0x4003a967	2.0572145
44	0x3ffd8326	1.9805648
45	0x40051119	2.0791686
46	0x3fe53f05	1.7909857
47	0x406aa124	3.6660852
48	0x3e88dd93	0.26731548
49	0x3f97d626	1.1862228
50	0xbf5243d8	-0.8213477
51	0x3d810275	0.06299297
52	0xbcaaacd6	-0.020834368
53	0x40136076	2.3027625
54	0xbbe0202a	-0.0068397718
55	0x40464f03	3.0985725
56	0xc01c3813	-2.4409225
57	0x40191408	2.3918476
58	0x3fd2ef10	1.6479206
59	0x3f19cd62	0.60079014
60	0x4022212d	2.533275
61	0x4020771d	2.50727
62	0xbf6f4994	-0.93471646
63	0x403b20bf	2.9238737
64	0x4004434c	2.0666075
65	0xbdb38be8	-0.087669194
66	0x4001794e	2.0230289
67	0xbce53ea2	-0.027983967
68	0xbf425e37	-0.7592501
69	0x3fcacb1b	1.5843233
70	0xbd634445	-0.05548503
71	0xbb8f5d80	-0.0043751597
72	0xbcf3a7a5	-0.029743025
73	0x3fe2ab0d	1.770845
74	0xbd654cc1	-0.0559814
75	0xc01bb309	-2.4328024
76	0x3f4ee833	0.8082306
77	0x400a5c27	2.1618745
78	0x401ca5dd	2.4476235
79	0xbd7efbca	-0.062251844
80	0x3a3494bf	0.000688862
81	0x400fdf0b	2.2479885
82	0x3d3369f2	0.04380221
83	0xbf0e8ae4	-0.5568068
84	0x405758c3	3.3647926
85	0xc01628b7	-2.346235
86	0x401db0bc	2.463912
87	0x402165d6	2.5218406
88	0xbd8771d4	-0.06613508
89	0xbcd47ae4	-0.025937505
90	0x40004bc0	2.0046234
91	0x3f916c64	1.1361203
92	0xbd8e6694	-0.06953159
93	0x3d4b8526	0.049687527
94	0x3fca275d	1.5793263
95	0x3ff7cc5f	1.9359244
96	0x4072ec3a	3.7956681
97	0x402205c2	2.5316014
98	0x3ffcf96b	1.9763616
99	0x3cd76b1f	0.026296197
100	0x4027e64c	2.6234312
101	0x3fd62e4c	1.6732879
102	0x402876c5	2.632249
103	0x3d64580f	0.05574804
104	0x3a8c2ac0	0.0010693893
105	0x3fcf0f39	1.617652
106	0xbc6fd55f	-0.014638274
107	0x4013e80f	2.3110387
108	0x40565abf	3.3492887
109	0x3db0b05a	0.086273864
110	0x3fbbc93c	1.4670787
111	0x3cf4d068	0.029884532
112	0xbcab17ad	-0.020885313
113	0x3c7a8098	0.015289448
114	0xbf3dee06	-0.7419132
115	0xbd1fae0c	-0.038984343
116	0xbd69edd1	-0.057111565
117	0x4077e254	3.873189
118	0x3ff5ebc4	1.9212575
119	0x4022f7ef	2.5463827
120	0xbcdc025b	-0.026856592
121	0x3c0ae4f0	0.0084774345
122	0xc013c50f	-2.3089025
123	0x4030cb94	2.7624254
124	0x401149af	2.2701223
125	0x3fdc01e8	1.7188082
126	0xbd249e87	-0.040190246
127	0xbd6fbaf8	-0.058527917
128	0x3feec1c9	1.8652889
129	0xbf5afb9f	-0.85540193
130	0x3ffa55c8	1.9557428
131	0xbdafb107	-0.08578687
132	0xbd3128dc	-0.043251857
133	0x40112dd2	2.2684216
134	0xbc7c56be	-0.01540154
135	0x4007d921	2.1226275
136	0x3d721896	0.05910548
137	0xbab062d9	-0.0013457193
138	0x402d0b1e	2.7038035
139	0x3f15f2d4	0.5857365
140	0xc0079c68	-2.1189213
141	0x3ff1a499	1.8878356
142	0x3d490056	0.049072586
143	0xbf9944f8	-1.1974173
144	0x3fdd677e	1.7297208
145	0xbca3eed2	-0.02001134
146	0xbd8ef30a	-0.0697995
147	0x3fff165b	1.9928697
148	0x3f749b1c	0.9554918
149	0x3f5bb170	0.85817623
150	0x4036b3fc	2.8547354
151	0x3fcba065	1.5908324
152	0xbd13d37a	-0.03609035
153	0x3ff22a1d	1.8919102
154	0xbc3ed8f7	-0.011648408
155	0xbd3de715	-0.046362955
156	0x3c1bcd58	0.009509407
157	0x3ff62d72	1.9232619
158	0xc00111ae	-2.016704
159	0x40053b68	2.0817509
160	0x3ff48094	1.9101739
161	0x3febd998	1.8425779
162	0xbc82ae8d	-0.015952373
163	0x400c450f	2.191715
164	0x3d2f632a	0.04281918
165	0x401f6ab5	2.4908879
166	0x40000332	2.000195
167	0xbd82b396	-0.063819095
168	0x40030c75	2.0476353
169	0xbcbdaed9	-0.023154663
170	0x4000e058	2.0136929
171	0x3febf0c6	1.8432853
172	0x3ff508f7	1.9143361
173	0x3fecc15b	1.8496507
174	0x40014405	2.0197766
175	0x3eaba972	0.33527714
176	0x403ff544	2.9993448
177	0x40273c3d	2.6130517
178	0xbe55a8af	-0.20865129
179	0xbd3d49fd	-0.04621314
180	0xbc6fe665	-0.014642333
181	0x3fe0945a	1.7545273
182	0x3b6f4a36	0.003651274
183	0x3f9fa761	1.2472955
184	0xc00d817e	-2.2110286
185	0xbff7c2a3	-1.9356273
186	0x400be5f3	2.18591
187	0xbf60da4e	-0.87833107
188	0x3fd407bb	1.6564859
189	0x3fd07ced	1.6288124
190	0x40487832	3.1323361
191	0x3faaa46c	1.3331428
192	0x3feb685d	1.8391224
193	0x3ba185b0	0.004929267
194	0x3fefc005	1.8730475
195	0x3c804bd0	0.01566115
196	0xbe8cc560	-0.27494335
197	0x401719db	2.360953
198	0xbc940957	-0.01807086
199	0xbd5ddfdf	-0.05416858
200	0xbd67f21c	-0.056627378
201	0x400419db	2.064078
202	0x3d9ea1ef	0.0774573
203	0xc017b582	-2.3704534
204	0x4034e34d	2.8263733
205	0x3feb9902	1.8406069
206	0x3fdc9be1	1.723507
207	0xbd3fdf7a	-0.046843983
208	0xbd81db68	-0.063406765
209	0x3febd3d2	1.8424017
210	0xbc41cf2a	-0.011829177
211	0x404cd39d	3.2004158
212	0x3fb34311	1.4004842
213	0xc0022fa6	-2.0341582
214	0x3fd92290	1.6963673
215	0x3fd0c70e	1.6310747
216	0xbd97cc19	-0.074119754
217	0xbcda45dd	-0.026644642
218	0x3fead8f0	1.8347454
219	0x401df45d	2.4680398
220	0xbbca04ae	-0.0061651086
221	0xbc72c680	-0.014817834
222	0x401043f0	2.2541466
223	0x3ff1063e	1.883003
224	0xc08f9f04	-4.488161
225	0xc00152b4	-2.0206728
226	0x3ff1cf8d	1.8891464
227	0xbd2f0f79	-0.042739365
228	0x3fc28df2	1.5199568
229	0x4007e2c9	2.1232169
230	0x3fccc4c4	1.5997548
231	0xbd28e204	-0.04123117
232	0xbc850592	-0.016238008
233	0x400c74fe	2.1946406
234	0x3c3cd738	0.0115259215
235	0x3fdc4542	1.7208636
236	0x3f811ffe	1.0087888
237	0x40455ecb	3.0839107
238	0x401730f0	2.362362
239	0x3c642b0f	0.013926282
240	0xbd8e6e96	-0.06954686
241	0xbbcb46a0	-0.0062034875
242	0xbe216ac2	-0.15763381
243	0xbcdfb898	-0.0273097
244	0xbd03682f	-0.03208178
245	0xc052e770	-3.2953758
246	0x3ff53f8e	1.916002
247	0x3fced166	1.6157653
248	0xbd008a9c	-0.03138219
249	0xbbf8a172	-0.007587605
250	0xc0483d10	-3.128727
251	0x3fbc7e5e	1.4726064
252	0x3fdecb42	1.7405779
253	0x400caa58	2.197897
254	0xbd2756a9	-0.04085413
255	0xbd925a9c	-0.071461886

fc.2.bias f4 [2]
0	0x3e55e3a2	0.20887616
1	0x3e8e5eca	0.27806693
