data/0108-2356checkpoint_dqn.pth (torch_old, 161227 bytes, 12 tensors)

encoder.0.weight f4 [64, 4]
0.30867735 -0.08175586 -1.108475 -0.25551727 -0.0023208049 -0.18742836 0.4233584 -0.026578542
0.0074343397 -0.5230544 0.40982223 -0.5232357 -0.7211439 0.40968174 1.1013756 0.7002101
-0.45668694 0.3089248 0.6277898 -0.44772723 0.016771488 -0.13279115 -0.06299831 0.08950446
0.26010776 0.40724936 -0.119194984 -0.053674564 -0.52774507 0.47979948 0.88394976 -0.4930603
0.10230292 0.51442707 0.045552656 0.48384166 0.4468503 0.10115001 -0.04553887 -0.494215
0.04382705 0.05968458 0.7259159 0.093165174 0.72813225 0.06302588 -0.6062404 -0.037620988
-0.25453913 0.12994312 0.48603252 0.23530851 -0.08764301 0.31985155 -0.14765394 -0.24286099
0.109728485 -0.16836908 -0.07548389 0.44459385 0.19394447 -0.15927537 0.63307106 -0.02308891
0.38907388 -0.4548802 0.093490824 0.3080689 -0.07654276 -0.14801142 0.27695617 0.13840184
-0.5426122 0.5310325 0.6568463 0.2383762 0.4153463 -0.38150057 0.2971906 0.105402
-0.72881365 0.15340005 0.6082815 -0.6055018 -0.3262476 0.15059464 0.9066684 0.392831
-0.5770219 0.2706677 1.2245733 0.16513754 -0.43637946 0.2734252 -0.24659623 -0.32224146
-0.13970542 0.2204892 0.19774151 0.11993623 -0.15605974 -0.008634393 -0.39020762 -0.12419993
-0.9438575 0.2041263 0.3578988 0.27303386 0.03300243 -0.3273931 -0.17897454 -0.36012426
-0.8602007 0.14415266 0.5283045 0.20117821 -0.27565673 -0.041101925 0.2859547 0.5179509
-0.022700043 0.014939102 -0.93875843 -0.20692866 0.18945391 -0.42332274 0.505953 -0.3902621
-0.64504266 -0.06868052 -0.25030234 -0.19859661 -0.04404213 0.5717266 0.59800774 -0.2171088
-0.39090157 0.05631438 -0.40232375 -0.20247725 0.19488671 -0.47121352 -0.50470376 -0.5305482
-0.20756173 0.1722784 -0.1874306 0.097030714 0.337063 0.36431602 0.081248686 0.37674233
0.13813119 0.4600755 0.06236703 0.578155 0.22583845 0.45184427 0.10068609 0.209286
-0.49963328 0.23408109 0.6810657 -0.17784576 0.3830829 0.5153939 0.5491531 -0.23614241
0.18118608 -0.001459129 1.0479083 0.3591447 -0.046223707 -0.08824407 -0.019350365 -0.18956204
-0.023680016 -0.5871811 0.22064188 -0.41262826 -0.12108592 -0.12767397 0.111912824 -0.011303355
0.23705481 -0.347452 -0.78854144 -0.49219647 -0.41527283 0.19068421 1.1017095 0.37740776
0.5183189 -0.1309949 -0.7635915 -0.3180717 0.08623965 0.040447947 0.37780082 0.39885557
0.2985399 0.11940961 1.0544763 0.4621947 0.07999189 -0.104866005 -1.1721793 -0.21385813
-0.041442353 -0.09729847 -0.061467703 -0.35703808 -0.66387427 -0.11986516 0.790074 0.24538271
-0.2651457 0.35956016 -0.61641306 -0.6691296 -0.06027249 0.7196498 -0.09318732 0.11739409
0.45290673 -0.06712914 -0.5881861 -0.26111197 0.38770688 -0.3173483 -0.48123857 -0.0074285604
-0.28558615 0.22519977 -0.7470527 -0.22058888 -0.3415863 -0.3915396 -0.29169104 0.3609687
0.24751344 -0.3629928 -0.6098851 -0.3316844 -0.3458158 -0.5694701 0.15895876 -0.52668893
0.16908962 -0.2962968 -1.144332 -0.6898785 0.007196345 -0.30093658 1.1202573 0.40028346
00000000: f50a 9e3e 9e6f a7bd 82e2 8dbf 29d3 82be
00000010: a518 18bb 38ed 3fbe 6fc2 d83e 3ebb d9bc
00000020: c39b f33b e5e6 05bf 38d4 d13e c6f2 05bf
00000030: e39c 38bf cec1 d13e e0f9 8c3f f840 333f
00000040: dfd2 e9be 642b 9e3e d5b6 203f 813c e5be
00000050: 5c64 893c 67fa 07be 4205 81bd 1d4e b73d
00000060: d82c 853e fd82 d03e 801c f4bd dcd9 5bbd
00000070: 4d1a 07bf 47a8 f53e 884a 623f 6672 fcbe
00000080: 3184 d13d 7eb1 033f 6c95 3a3d 18ba f73e
00000090: 90c9 e43e bd27 cf3d f786 3abd c009 fdbe
000000a0: fe83 333d d177 743d a0d5 393f 62cd be3d
000000b0: e066 3a3f b613 813d 9232 1bbf 7718 1abd
000000c0: f452 82be cf0f 053e 41d9 f83e b7f4 703e
000000d0: 2e7e b3bd 95c3 a33e 9832 17be 8db0 78be
000000e0: 54b9 e03d f268 2cbe 4c97 9abd cea1 e33e
000000f0: 6199 463e 1519 23be f210 223f f424 bdbc
00000100: b134 c73e 0fe6 e8be 1e78 bf3d 35bb 9d3e
00000110: 73c2 9cbd 4e90 17be 33cd 8d3e 36b9 0d3e
00000120: a2e8 0abf bff1 073f 1427 283f e418 743e
00000130: 45a8 d43e 0b54 c3be 5e29 983e 01dd d73d
00000140: 8893 3abf e714 1d3e 56b8 1b3f 2a02 1bbf
00000150: ed09 a7be 7b35 1a3e 6c1b 683f 2521 c93e
00000160: b5b7 13bf f594 8a3e d1be 9c3f d119 293e
00000170: 216d dfbe 63fe 8b3e b983 7cbe d5fc a4be
00000180: f00e 0fbe ecc7 613e c07c 4a3e 20a1 f53d
00000190: 20ce 1fbe 4577 0dbc 4bc9 c7be 885c febd
000001a0: a5a0 71bf 7c06 513e 833e b73e 18cb 8b3e
000001b0: 8e2d 073d 12a0 a7be 1a45 37be 3562 b8be
000001c0: 1d36 5cbf c19c 133e f73e 073f a901 4e3e
000001d0: e122 8dbe 7e5a 28bd a868 923e 6e98 043f
000001e0: 71f5 b9bc 23c3 743c 7952 70bf 1be5 53be
000001f0: 3500 423e c2bd d8be 2386 013f 6fd0 c7be
00000200: 8421 25bf 5fa8 8cbd a127 80be e95c 4bbe
00000210: 8565 34bd ad5c 123f 0917 193f c551 5ebe
00000220: 4024 c8be e8a9 663d 61fd cdbe 3256 4fbe
00000230: 6290 473e e642 f1be 4434 01bf 02d2 07bf
00000240: 108b 54be c069 303e cfed 3fbe 0ab8 c63d
00000250: 8693 ac3e a187 ba3e b665 a63d 5fe4 c03e
00000260: 4372 0d3e 048f eb3e 9274 7f3d f701 143f
00000270: 3242 673e 2258 e73e 8234 ce3d 124f 563e
00000280: efcf ffbe f4b2 6f3e 525a 2e3f 331d 36be
00000290: 7123 c43e dbf0 033f 4c95 0c3f 51cf 71be
000002a0: d888 393e 3f40 bfba dc21 863f d0e1 b73e
000002b0: 1255 3dbd 4fb9 b4bd a884 9ebc 8d1c 42be
000002c0: 98fc c1bc 8051 16bf f2ef 613e 0344 d3be
000002d0: e5fb f7bd f7bc 02be 8d32 e53d b531 39bc
000002e0: 7fbe 723e 3be5 b1be dadd 49bf 2d01 fcbe
000002f0: a49e d4be b942 433e d104 8d3f 973b c13e
00000300: 8cb0 043f 8723 06be bc7a 43bf 4bda a2be
00000310: 6a9e b03d bfac 253d 1c6f c13e cc36 cc3e
00000320: 39da 983e 078d f43d 14f9 863f c9a4 ec3e
00000330: cad2 a33d fdc3 d6bd f909 96bf a0fd 5abe
00000340: 75bf 29bd 6c44 c7bd 8fc5 7bbd b2cd b6be
00000350: aaf3 29bf dd7b f5bd 4a42 4a3f 9b45 7b3e
00000360: 2dc1 87be 4518 b83e 3fcd 1dbf 144c 2bbf
00000370: 49e0 76bd f83a 383f fed8 bebd 506c f03d
00000380: 64e3 e73e 017b 89bd 5d93 16bf 78b0 85be
00000390: 8481 c63e 7a7b a2be e764 f6be 486b f3bb
000003a0: 5938 92be c59a 663e d93e 3fbf 0de2 61be
000003b0: 66e4 aebe e177 c8be 8758 95be e4d0 b83e
000003c0: 2a74 7d3e 31da b9be 6e21 1cbf 8ad2 a9be
000003d0: c50e b1be cbc8 11bf 16c6 223e 16d5 06bf
000003e0: d425 2d3e 37b4 97be 7979 92bf e19b 30bf
000003f0: 51cf eb3b 5c14 9abe 9764 8f3f f4f1 cc3e

encoder.0.bias f4 [64]
0.29498294 0.39519694 0.2629943 -0.4376622 0.08062222 0.48397994 0.25880352 -0.24556197
0.33729234 -0.44574386 0.11888755 -0.021358434 0.23395579 -0.49269554 0.5633923 0.40222228
0.14578491 0.560328 0.22069721 0.5634555 -0.22781774 -0.25233322 0.32382834 -0.2971777
-0.41038024 -0.33529207 -0.1254972 -0.22769251 -0.053272072 -0.54033357 -0.11033656 0.45750558
0.5082506 0.14197768 -0.64095765 -0.2861287 -0.29486087 0.36363563 0.3055307 0.37538236
0.326353 -0.07541528 -0.25953284 0.46639505 0.12460502 0.19681989 -0.3670699 -0.2897485
-0.20618041 0.53182167 -0.028983345 -0.25952953 0.5430056 -0.053718083 -0.1431325 0.02820774
-0.18657872 0.22409154 0.24148864 0.1616732 -0.31446096 0.255446 -0.36482185 -0.2690751
00000000: 0108 973e 4157 ca3e 30a7 863e 4315 e0be
00000010: 431d a53d 38cc f73e e581 843e 9974 7bbe
00000020: 95b1 ac3e 8a38 e4be 517b f33d e2f7 aebc
00000030: 1b92 6f3e 9742 fcbe 7a3a 103f 14f0 cd3e
00000040: a448 153e a871 0f3f 73fe 613e 9f3e 103f
00000050: 0e49 69be d231 81be d4cc a53e ad27 98be
00000060: 5c1d d2be 67ab abbe 5782 00be 3a28 69be
00000070: d133 5abd 4d53 0abf 22f8 e1bd 2c3e ea3e
00000080: b61c 023f 9962 113e cd15 24bf 767f 92be
00000090: 01f8 96be 732e ba3e 856e 9c3e 1e32 c03e
000000a0: be17 a73e 5473 9abd 7de1 84be 55cb ee3e
000000b0: eb30 ff3d 278b 493e 96f0 bbbe ea59 94be
000000c0: f520 53be 7725 083f 7b6e edbc 0ee1 84be
000000d0: 6a02 0b3f 7e07 5cbd 5391 12be eb13 e73c
000000e0: 7e0e 3fbe 4178 653e cc48 773e a98d 253e
000000f0: 0701 a1be d1c9 823e eec9 babe 36c4 89be

encoder.2.weight f4 [64, 64]
0.04436808 -0.0014449366 0.033384785 -0.7199658 -0.05906402 0.07327979 0.05934412 0.23266599
0.09707074 0.17882426 0.08368967 -0.11020729 0.11541934 0.08650916 0.115187764 0.15620154
0.0072968663 0.056028333 0.09854656 0.11339469 0.068338044 -0.58321625 -0.0062029753 -0.039507974
-0.05056095 -0.18492799 -0.47013956 0.19608983 -0.095744744 -0.1108658 -0.1988481 0.074488014
0.08082156 0.026494905 -0.29693335 0.0950716 0.04379063 0.107587285 0.08618682 0.108131714
0.09758448 0.13786277 -0.33513272 0.060995236 0.10367118 -0.070706 -0.07202147 -0.7414118
-0.11434169 -0.040336065 -0.13159262 -0.4155163 -0.021722956 -0.027844558 -0.15548955 0.27299935
-0.051685046 0.1220582 -0.11746159 -0.061633736 -0.21857381 0.19457838 -0.16527393 -0.062453654
-0.03941375 0.11181318 0.065609634 -0.67692417 0.08896419 0.08162817 -0.051786434 -0.04398561
0.06670846 -0.17184739 -0.03336415 -0.4308414 0.07793819 -0.2566428 0.1306904 -0.044899896
-0.09195559 0.06621607 0.19229828 0.1291526 -0.038778972 -0.40786037 -0.07176752 0.08439021
-0.012912706 -0.26938474 -0.47477707 -0.014425777 -0.25247058 -0.18460436 -0.5137868 0.08698545
0.15220009 0.048002165 -0.30179518 -0.026325721 -0.014846906 0.023360295 0.08857558 -0.015894562
0.16153307 0.08161998 -0.30807087 -0.024931686 0.09781001 0.0020487718 -0.26014653 -0.6426107
-0.24142887 0.08945173 -0.10534965 -0.45203897 0.15642849 -0.16483565 -0.15534624 -0.059669867
-0.3353168 0.15084201 0.048615903 0.18293409 -0.18924348 0.15065032 -0.49824783 0.03819742
-0.12266837 0.016515853 0.20286012 -0.74211305 0.06228436 -0.013155466 0.004500576 0.20276277
0.011795454 0.10567847 0.043601364 -0.27637804 0.005775571 0.06717673 0.103122756 0.21874055
-0.037088245 -0.042290084 0.12376399 0.18081814 0.18757084 -0.4170082 -0.10459566 0.1377285
0.09011282 -0.19079116 -0.54429495 -0.007644544 -0.16931906 -0.33699733 -0.49938816 0.029793967
0.15340628 0.017259283 -0.2236241 -0.05330096 0.09899592 0.19060436 0.023358587 -0.01268817
0.118553326 0.16057533 -0.36754718 0.026938492 0.08598827 0.014965867 -0.26554218 -0.79098606
-0.13125473 0.18266527 0.03678299 -0.34726486 0.14530025 -0.12942065 0.0008623859 0.28146952
-0.09764755 0.13633378 0.030028086 0.03902439 -0.183547 0.02678441 -0.36917323 0.035291556
-0.030674044 0.16100615 -0.0027898457 -0.81767714 0.03283167 0.17992997 -0.0924199 0.017231712
0.0704945 -0.04307168 0.11309062 -0.11698895 0.03220651 -0.35713995 0.019050702 0.2252874
0.13230701 0.006863975 0.34244916 0.06946797 -0.010157749 -0.5961612 0.11102557 -0.010689763
-0.07379787 -0.36701354 -0.5225002 -0.11902957 -0.051119186 -0.29353395 -0.41216245 0.16003183
-0.003023965 -0.031978413 -0.35742348 0.090905085 -0.047449805 0.08661968 0.21866041 -0.0050325044
0.029140925 0.11746138 -0.1873211 0.039900925 0.18462743 0.109546095 -0.29872978 -0.723284
-0.18509156 0.09349201 0.1113597 -0.570336 0.11771091 0.0067095645 -0.21943043 0.28117788
-0.010759613 0.014013594 -0.08838076 0.14995666 -0.31879786 -0.012863404 -0.46058512 0.039756596
00000000: 4ebb 353d 0764 bdba 7cbe 083d ae4f 38bf
00000010: 1ded 71bd b713 963d d212 733d fe3f 6e3e
00000020: 06cd c63d b51d 373e 7d65 ab3d 5cb4 e1bd
00000030: fa60 ec3d b72b b13d 90e7 eb3d 4cf3 1f3e
00000040: 8d1a ef3b f77d 653d c7d2 c93d 7a3b e83d
00000050: d1f4 8b3d a94d 15bf 5442 cbbb 1dd3 21bd
00000060: 0019 4fbd c35d 3dbe 22b6 f0be c6cb 483e
00000070: d215 c4bd 9c0d e3bd d69e 4bbe 2c8d 983d
00000080: c685 a53d d80b d93c a607 98be e6b4 c23d
00000090: ce5d 333d b956 dc3d b782 b03d 2974 dd3d
000000a0: 5fda c73d e62b 0d3e 8496 abbe 24d6 793d
000000b0: 8e51 d43d 4fce 90bd fe7f 93bd 2acd 3dbf
000000c0: fa2b eabd 6e37 25bd 37c0 06be 8dbe d4be
000000d0: 57f4 b1bc 451a e4bc a738 1fbe 92c6 8b3e
000000e0: b3b3 53bd a6f9 f93d b48f f0bd a873 7cbd
000000f0: d0d1 5fbe 8e3f 473e 923d 29be 67cf 7fbd
00000100: 5070 21bd 4ffe e43d 585e 863d e74a 2dbf
00000110: db32 b63d ac2c a73d 031e 54bd 412a 34bd
00000120: 729e 883d c3f8 2fbe d9a8 08bd 3e97 dcbe
00000130: 0f9e 9f3d af66 83be b4d3 053e f4e8 37bd
00000140: 3653 bcbd 4a9c 873d d7e9 443e 9440 043e
00000150: b3d6 1ebd 13d3 d0be d9fa 92bd c6d4 ac3d
00000160: d08f 53bc ccec 89be fb15 f3be 185a 6cbc
00000170: d343 81be ed08 3dbe 8887 03bf 6d25 b23d
00000180: 57da 1b3e eb9d 443d e684 9abe 0aa9 d7bc
00000190: 7040 73bc 175e bf3c 1d67 b53d 5035 82bc
000001a0: ed68 253e 6028 a73d 77bb 9dbe 893d ccbc
000001b0: 9d50 c83d b044 063b ed31 85be 2382 24bf
000001c0: 2139 77be 7832 b73d 8fc1 d7bd a771 e7be
000001d0: ca2e 203e adca 28be 1613 1fbe 6468 74bd
000001e0: a5ae abbe 5476 1a3e 7821 473d 1353 3b3e
000001f0: 0bc9 41be 1444 1a3e 571a ffbe e674 1c3d
00000200: 8e39 fbbd 414c 873c 90ba 4f3e 1ffb 3dbf
00000210: e31d 7f3d 068a 57bc 9179 933b 0ba1 4f3e
00000220: b841 413c f46d d83d 5897 323d 6c81 8dbe
00000230: 0041 bd3b f493 893d 0632 d33d 86fd 5f3e
00000240: d8e9 17bd 5e38 2dbd fa77 fd3d 6428 393e
00000250: 9212 403e 1982 d5be 4036 d6bd b308 0d3e
00000260: 128d b83d c25e 43be ea56 0bbf 157f fabb
00000270: fa61 2dbe ea8a acbe ceaf ffbe 7a12 f43c
00000280: 8916 1d3e 5763 8d3c b7fd 64be 1c52 5abd
00000290: 5fbe ca3d ca2d 433e 825a bf3c 0be2 4fbc
000002a0: 16cc f23d dc6d 243e 252f bcbe 1dae dc3c
000002b0: 9e1a b03d 6533 753c 25f5 87be 107e 4abf
000002c0: a467 06be 9b0c 3b3e c3a9 163d b3cc b1be
000002d0: 97c9 143e d986 04be bd11 623a c61c 903e
000002e0: 70fb c7bd 159b 0b3e 76fd f53c 0ad8 1f3d
000002f0: bff3 3bbe fb6a db3c 4604 bdbe e18d 103d
00000300: 2248 fbbc ccde 243e d8d5 36bb 4a53 51bf
00000310: 807a 063d 903f 383e a546 bdbd 8529 8d3c
00000320: 6c5f 903d ee6b 30bd 0e9c e73d e797 efbd
00000330: f9ea 033d 0cdb b6be 3810 9c3c bdb1 663e
00000340: 7d7b 073e 32eb e03b 7f55 af3e 3945 8e3d
00000350: b06c 26bc 059e 18bf 6061 e33d 1e24 2fbc
00000360: 5623 97bd 33e9 bbbe 93c2 05bf c6c5 f3bd
00000370: 5a62 51bd 154a 96be f506 d3be 62df 233e
00000380: b72d 46bb ccfb 02bd 3600 b7be 722c ba3d
00000390: ba5a 42bd a965 b13d 84e8 5f3e b5e7 a4bb
000003a0: f3b8 ee3c 988f f03d 1ad1 3fbe 276f 233d
000003b0: f90e 3d3e b459 e03d 1cf3 98be 2429 39bf
000003c0: a488 3dbe bd78 bf3d 8e10 e43d 8a01 12bf
000003d0: 6b12 f13d e8db db3b 5fb2 60be 8cf6 8f3e
000003e0: 1649 30bc 4699 653c f900 b5bd 3d8e 193e
000003f0: 7939 a3be 07c1 52bc d0d1 ebbe d0d7 223d

encoder.2.bias f4 [64]
0.18749441 0.026216319 0.17817499 0.16347075 0.0040879166 0.0964066 -0.009481493 0.18021159
0.15521514 -0.0065576024 0.13882148 -0.03808451 0.09781345 0.18726781 0.05079551 0.19338907
0.19896588 0.098077014 0.06169116 0.095640555 0.13671018 0.196709 0.16139041 0.10563442
0.07574539 -0.091204174 0.18872479 -0.11878829 0.13833007 -0.022202669 0.20113467 0.053495537
0.20741287 -0.010932242 0.18301247 0.084126554 0.19263533 -0.04441412 0.044774882 0.12861703
0.109641716 -0.076430984 -0.057108372 0.03495206 0.13516296 0.17765313 0.17116775 0.09245744
0.10243269 0.09279237 -0.001929062 0.06849062 0.2371 -0.062008057 0.12703718 -0.06182723
0.20643713 -0.01913745 0.20955361 0.101688914 -0.06831574 0.19506744 0.16022097 0.14035161
00000000: 89fe 3f3e 9bc3 d63c 8173 363e e064 273e
00000010: eef3 853b d370 c53d 4458 1bbc 6389 383e
00000020: b8f0 1e3e 28e1 d6bb 3827 0e3e 81fe 1bbd
00000030: 6b52 c83d 22c3 3f3e f40e 503d c907 463e
00000040: b6bd 4b3e 9adc c83d dfaf 7c3d 32df c33d
00000050: c1fd 0b3e 166e 493e 8743 253e dc56 d83d
00000060: 6620 9b3d 41c9 babd 1241 413e 4647 f3bd
00000070: 66a6 0d3e 5fe2 b5bc 3ff6 4d3e 231e 5b3d
00000080: 0a64 543e 251d 33bc 9f67 3b3e 8b4a ac3d
00000090: 3242 453e 95eb 35bd de65 373d 2fb4 033e
000000a0: d68b e03d d987 9cbd 78ea 69bd e429 0f3d
000000b0: 2968 0a3e b4ea 353e 9946 2f3e 545a bd3d
000000c0: 3bc8 d13d ed09 be3d 94d8 fcba cf44 8c3d
000000d0: 58ca 723e 29fc 7dbd 0916 023e 8d3e 7dbd
000000e0: 4164 533e 24c6 9cbc 3995 563e 4742 d03d
000000f0: 1fe9 8bbd c2bf 473e f710 243e 55b8 0f3e

logits_t.0.weight f4 [32, 64]
-0.0608613 -0.04934758 0.02478306 0.081951395 0.11288723 -0.0031726316 -0.07628736 0.0767044
-0.04904437 0.067686364 -0.032953933 0.067474574 0.038661495 -0.02362147 -0.011098334 0.038602035
0.09874613 -0.058473792 0.03858305 -0.11234799 -0.121463634 -0.019571772 -0.001712012 0.03888264
0.0757149 -0.036304027 -0.10979861 0.077876076 -0.13685778 0.091199905 0.10718274 -0.0093706995
0.08661182 -0.13471806 0.057564884 -0.05061364 -0.0157291 0.055492178 -0.106105834 -0.083342016
-0.01590319 -0.08339436 -0.06743087 -0.011607877 0.05066447 -0.09265544 -0.10335942 0.033063907
-0.09831181 -0.103051424 -0.0603185 -0.07941079 -0.05515167 -0.07458395 -0.020846963 0.026869398
-0.042308092 -0.10737775 -0.10926887 0.02347461 0.0004069358 -0.0035035834 -0.04163726 0.021952659
-0.026407326 -0.17498359 0.17097409 0.10990969 -0.12420821 -0.2564416 -0.7502591 -0.036746066
-0.3512465 0.037332054 0.020092335 -0.07077762 0.23261926 0.025432536 0.15918562 0.22014296
0.11921834 -0.09601654 0.28814945 0.0027624476 -0.17254576 -0.27861953 0.11087596 0.09943817
-0.02900039 0.06658459 0.05144447 -0.08030854 -0.11122149 -0.006571725 -0.04198584 -0.02532248
-0.12228676 -0.14580283 -0.091607064 -0.2098566 -0.18243273 -0.12754251 -0.09707191 -0.023212258
0.54521656 -0.6221095 0.15408002 0.095350005 0.18241389 0.05333338 -0.046876 -0.029144043
0.23118968 0.16054541 0.077033386 -0.2798761 -0.096666 0.05151075 0.2811521 1.7774563
0.028941464 -0.0058391094 0.19123171 -0.17448516 -0.075797394 -0.029434742 0.35030693 0.17680606
-0.026013598 -0.17944863 -0.054613914 0.19071452 0.036179766 -0.07246652 -0.1450507 0.03575624
-0.0744989 0.13368845 -0.08131254 0.18654768 0.07697556 0.17573115 -0.13491388 0.012494152
-0.14817813 -0.16033167 0.08889704 0.10148912 -0.15570362 -0.047255937 -0.2490772 -0.10080368
0.013909305 0.02425432 0.07593405 -0.00019933283 -0.08969381 -0.102548525 0.06943382 -0.45997933
0.07420996 -0.067466006 0.061774105 0.08449247 0.08085948 -0.083732724 0.040150438 -0.004559073
0.18060519 -0.16604239 0.04036526 -0.021815134 -0.17794277 0.0666145 0.13798146 0.026944483
0.2727379 0.41182855 -0.038177375 0.010810886 -0.087779164 0.11593002 0.15478483 0.47373328
-0.07131937 0.11687547 0.119651854 -0.16631372 -0.04494668 0.071902774 0.040787105 -0.10348391
-0.11528808 0.042364124 -0.0073049404 0.006534041 -0.027463466 0.0695564 -0.07193765 0.098125406
0.049876004 -0.05404859 -0.018266253 0.052444536 -0.06287443 0.06614392 0.09540102 -0.030743731
-0.05508067 -0.0821975 -0.14245106 -0.056634236 0.058839098 -0.11562406 0.0804652 0.044719256
-0.12080644 0.06368244 -0.09347879 -0.0678927 -0.05898898 0.057898015 0.0480703 -0.14847071
-0.028338276 -0.00065826054 -0.122946 -0.0929985 -0.13638234 -0.043914605 -0.03162099 -0.12314538
0.08656583 0.056251813 -0.055648014 -0.054176863 0.030339913 -0.08201298 -0.086688645 -0.10697219
0.012367006 0.0638081 0.09372714 0.054882117 -0.12308411 0.11686657 -0.04428823 -0.06732894
0.02468116 0.00765042 0.06479117 -0.010066254 0.104385674 -0.07107794 0.07431115 -0.08232251
00000000: b349 79bd b020 4abd d805 cb3c 22d6 a73d
00000010: 6c31 e73d edeb 4fbb 8c3c 9cbd 3217 9d3d
00000020: c0e2 48bd 269f 8a3d b4fa 06bd 1c30 8a3d
00000030: 845b 1e3d d081 c1bc c9d5 35bc 2b1d 1e3d
00000040: 693b ca3d 3782 6fbd 4309 1e3d b416 e6bd
00000050: edc1 f8bd fb54 a0bc 9765 e0ba 6743 1f3d
00000060: 6a10 9b3d 88b3 14bd 18de e0bd 7e7d 9f3d
00000070: 7224 0cbe 04c7 ba3d a082 db3d 9087 19bc
00000080: 8a61 b13d 88f3 09be 28c9 6b3d 4050 4fbd
00000090: 50da 80bc c44b 633d 044e d9bd 38af aabd
000000a0: 6847 82bc aaca aabd 3219 8abd f72e 3ebc
000000b0: 8c85 4f3d 23c2 bdbd 1bae d3bd 056e 073d
000000c0: b457 c9bd a00c d3bd 8810 77bd 20a2 a2bd
000000d0: b8e6 61bd 78bf 98bd 40c7 aabc 361d dc3c
000000e0: 404b 2dbd dee8 dbbd 5bc8 dfbd d34d c03c
000000f0: 005a d539 609c 65bb d58b 2abd 10d6 b33c
00000100: 2d54 d8bc e62e 33be d513 2f3e 5518 e13d
00000110: e060 febd 504c 83be fb10 40bf 0b83 16bd
00000120: 95d6 b3be 7fe9 183d ae98 a43c dbf3 90bd
00000130: be33 6e3e e557 d03c 8e01 233e 286d 613e
00000140: bf28 f43d 52a4 c4bd 5388 933e 2e0a 353b
00000150: d6af 30be 38a7 8ebe ef12 e33d 3da6 cb3d
00000160: 3a92 edbc 805d 883d 70b7 523d ce78 a4bd
00000170: 18c8 e3bd a057 d7bb 58f9 2bbd 1771 cfbc
00000180: 7b71 fabd 564d 15be 7c9c bbbd a6e4 56be
00000190: a5cf 3abe 819a 02be a3cd c6bd a227 bebc
000001a0: 5093 0b3f 9142 1fbf 27c7 1d3e dd46 c33d
000001b0: b5ca 3a3e 1a74 5a3d 0c01 40bd 7dbf eebc
000001c0: fdbc 6c3e 0466 243e aec3 9d3d ec4b 8fbe
000001d0: d3f8 c5bd f0fc 523d 2bf3 8f3e b083 e33f
000001e0: a616 ed3c 0056 bfbb 3fd2 433e 3dac 32be
000001f0: aa3b 9bbd 2121 f1bc 6e5b b33e a60c 353e
00000200: 781a d5bc 62c1 37be d7b2 5fbd ab4a 433e
00000210: 3c31 143d 5469 94bd 2c88 14be 2375 123d
00000220: e192 98bd a0e5 083e 3087 a6bd 5b06 3f3e
00000230: 5da5 9d3d def2 333e dd26 0abe 46b4 4c3c
00000240: 02bc 17be fc2d 24be a70f b63d 87d9 cf3d
00000250: c570 1fbe 718f 41bd 180e 7fbe 2972 cebd
00000260: dbe3 633c ffb0 c63c 5083 9b3d 0004 51b9
00000270: 63b1 b7bd f604 d2bd 5233 8e3d 6982 ebbe
00000280: 64fb 973d 9e2b 8abd d806 7d3d 630a ad3d
00000290: a899 a53d 107c abbd c974 243d 4764 95bb
000002a0: 91f0 383e 0407 2abe 0b56 253d a7b5 b2bc
000002b0: a136 36be 2f6d 883d 034b 0d3e adba dc3c
000002c0: 4da4 8b3e 31db d23e e15f 1cbd 2420 313c
000002d0: 90c5 b3bd b86c ed3d ea7f 1e3e 2b8d f23e
000002e0: e40f 92bd 685c ef3d 080c f53d 254e 2abe
000002f0: 031a 38bd c341 933d 6110 273d 5fef d3bd
00000300: 281c ecbd 0186 2d3d 485e efbb 821b d63b
00000310: 10fb e0bc 9673 8e3d 0c54 93bd f9f5 c83d
00000320: c84a 4c3d 0e62 5dbd 1ca3 95bc 15d0 563d
00000330: 4fc4 80bd 7776 873d 9c61 c33d 47da fbbc
00000340: 459c 61bd 2a57 a8bd b1de 11be 4df9 67bd
00000350: 4401 713d 4fcc ecbd f0ca a43d 8a2b 373d
00000360: 5e69 f7bd f06b 823d cf71 bfbd 540b 8bbd
00000370: 6e9e 71bd 7826 6d3d 5de5 443d b508 18be
00000380: ac25 e8bc 1e8f 2cba 1dcb fbbd ff75 bebd
00000390: d0a7 0bbe cddf 33bd 0385 01bd a533 fcbd
000003a0: 6d49 b13d 4d68 663d 2cef 63bd 8fe8 5dbd
000003b0: 698b f83c 6cf6 a7bd d189 b1bd 3c14 dbbd
000003c0: fc9e 4a3c d2ad 823d 04f4 bf3d 12cc 603d
000003d0: 8613 fcbd be57 ef3d 9367 35bd c1e3 89bd
000003e0: 2530 ca3c 60b0 fa3b 3cb1 843d eeec 24bc
000003f0: 28c8 d53d 5091 91bd 7230 983d b498 a8bd

logits_t.0.bias f4 [32]
-0.05888556 0.02107403 0.07498418 0.07089132 -0.068007104 0.089725055 0.010857097 0.01168341
0.036531683 -0.15896222 -0.053948894 0.17839994 0.0061126696 0.21693869 0.0016478219 -0.061777856
0.024503218 0.085358895 -0.08365672 0.16774768 -0.08762089 0.105217844 -0.06973537 -0.13044825
0.092302024 0.18342878 0.12414796 -0.11830704 0.112717986 -0.112577245 -0.07782475 0.1875259
00000000: fc31 71bd 72a3 ac3c 4e91 993d 782f 913d
00000010: 4f47 8bbd c5c1 b73d f7e1 313c c66b 3f3c
00000020: 3fa2 153d fec6 22be 84f9 5cbd 79ae 363e
00000030: ca4c c83b 2d25 5e3e bafb d73a c70a 7dbd
00000040: f9ba c83c a5d0 ae3d 3754 abbd 0cc6 2b3e
00000050: 9572 b3bd 747c d73d 6bd1 8ebd 3a94 05be
00000060: d808 bd3d c1d4 3b3e 4941 fe3d f64a f2bd
00000070: b0d8 e63d e68e e6bd 9562 9fbd ca06 403e

logits_t.2.weight f4 [2, 32]
-0.062737525 3.1361322 0.18427354 -0.09876355 0.033785287 -0.14055793 0.23921093 0.09504613
-0.1601716 -0.9445559 0.040180355 0.16489041 2.4281113 2.045468 -0.121267505 4.6533647
2.7020006 0.18437944 -0.032934826 0.15686712 0.34582356 0.1681364 -0.95221746 -0.237001
-0.117881745 3.6669538 3.5056407 0.1444814 0.21260129 -0.06074906 -0.044715803 3.3306472
-0.0877733 -3.2553844 -0.12296412 -0.024184072 0.12816757 -0.04861138 -0.21122353 0.14140114
0.09746891 0.95516133 0.078843415 -0.19931717 -2.5060964 -1.9908261 -0.04577272 -4.44928
-2.5691044 -0.1113928 -0.033809602 -0.27812058 -0.24702524 -0.0034524624 0.9825169 0.26400885
0.15521789 -3.502396 -3.586001 -0.17124416 -0.17674069 0.098395646 0.03584259 -3.300942
00000000: 887c 80bd 64b6 4840 34b2 3c3e 8b44 cabd
00000010: 7162 0a3d 6bee 0fbe b6f3 743e 8ca7 c23d
00000020: 0604 24be 6ace 71bf 2894 243d 08d9 283e
00000030: 2d66 1b40 f3e8 0240 195b f8bd 5de8 9440
00000040: 94ed 2c40 f7cd 3c3e abe6 06bd c6a1 203e
00000050: c90f b13e f32b 2c3e 86c4 73bf 64b0 72be
00000060: fc6b f1bd 5faf 6a40 6b5c 6040 eff2 133e
00000070: 27b4 593e 02d4 78bd eb27 37bd 5329 5540
00000080: 7dc2 b3bd 3858 50c0 9dd4 fbbd ad1d c6bc
00000090: 5c3e 033e ba1c 47bd fb4a 58be 76cb 103e
000000a0: c89d c73d 7485 743f a878 a13d cd19 4cbe
000000b0: e263 20c0 64d3 febf 2d7c 3bbd 8060 8ec0
000000c0: 356c 24c0 e921 e4bd f07b 0abd d265 8ebe
000000d0: 2ff4 7cbe b542 62bb 3a86 7b3f 2b2c 873e
000000e0: 70f1 1e3e 4227 60c0 0a81 65c0 a15a 2fbe
000000f0: 83fb 34be a883 c93d aecf 123d a242 53c0

logits_t.2.bias f4 [2]
-0.035688814 -0.15911458
00000000: 6f2e 12bd efee 22be

fc.0.weight f4 [128, 256]
-0.055567194 -0.00012347904 -0.0691324 -0.075209625 -0.029427953 0.026584554 0.019594872 -0.05698923
-0.07731751 -0.070616096 -0.036766175 -0.0805547 -0.022132108 -0.07097765 -0.044399295 0.04890019
-0.052573558 -0.008359259 -0.084349856 -0.044329565 -0.010406739 0.028488835 0.015943274 -0.050260697
-0.026646972 -0.024981856 -0.010485859 0.051310398 0.033305936 -0.04346989 0.0050711897 -0.05387226
-0.021911886 0.020999724 0.015800625 0.038565613 -0.02702889 -0.06016079 0.00041716616 0.01865764
0.0018996834 0.040012147 -0.058218524 0.02160998 0.0026087663 -0.058129083 0.020350387 -0.07965681
-0.031804863 -0.063393995 -0.053941853 0.0447863 -0.053568948 -0.01814133 -0.037948154 -0.028723761
-0.04799965 -0.034741215 -0.08545666 0.04910752 -0.022003949 -0.008711937 -0.09674107 -0.04124342
-0.008148983 -0.06675552 -0.03511842 0.008409556 -0.046881407 -0.013337581 -0.07042785 0.03981887
0.0040566158 0.019050283 -0.014036658 0.00067647384 -0.02864988 -0.08827712 -0.03692284 0.0021364621
-0.06330785 0.031937756 0.027996637 0.04859169 -0.0031647272 0.034442768 -0.06644509 0.0010482045
-0.046528313 -0.013495639 -0.028481562 0.044794746 -0.054494664 -0.023460865 -0.070021406 0.004020577
-0.05789012 0.028274942 0.01897585 0.006907039 -0.007042714 0.0027302878 -0.061166964 -0.03805594
-0.0912804 0.04538766 -0.03070312 -0.014818914 0.020048235 0.010376602 0.0035241684 0.021557681
-0.08692829 -0.032610953 0.05638008 0.03679767 -0.009030248 -0.056202717 -0.018862708 0.014329419
-0.015822355 0.022223577 -0.008674352 -0.023677222 -0.0022819564 0.04235833 -0.03361701 0.05770178
-0.006920455 -0.019207558 -0.04268679 -0.061609566 0.040418163 0.02843653 0.0019383113 -0.053401656
-0.057635933 -0.04085732 0.03405127 -0.06445367 -0.011430362 -0.051913172 -0.000613862 0.03030811
-0.020978766 -0.050776247 -0.05631759 0.04406266 0.030235905 0.03149427 0.021322723 -0.06992116
-0.0043358803 0.05436302 0.007888399 0.025315903 0.02795897 -0.03070397 0.019210635 -0.075417034
-0.02152982 0.045056637 0.04365804 -0.060203902 -0.07309233 0.028378706 -0.002190444 -0.0045424313
-0.01129272 -0.014797759 0.059620894 0.01363975 -0.05722541 -0.031020729 -0.00032914238 -0.012568212
0.0070662666 0.018283952 0.017954215 0.0040047914 -0.033392556 0.026339859 -8.069054e-05 0.023903668
0.013744697 -0.04082235 0.050924122 0.02064757 0.021764755 0.016592225 0.0045481543 -0.043565452
-0.0005129442 0.04305919 -0.072400264 -0.0036383003 0.046650097 0.045236923 -0.05013496 0.011439887
0.017665617 0.026543938 0.00041569397 -0.03307613 -0.06806899 -0.017778656 0.018225363 -0.048789416
-0.06689419 0.0006345335 -0.018864268 -0.040818974 -0.074555844 -0.007920442 0.02060294 0.046637326
-0.04463663 0.045290045 -0.023861295 0.01250089 -0.05995523 0.057455197 -0.021024276 -0.024547754
-0.074535124 0.01721658 -0.06065538 -0.054697122 -0.053342115 -0.0037170472 -0.033398695 -0.023058962
0.032073386 0.03217759 -0.007355422 -0.012793804 -0.017894518 -0.028868536 -0.019232275 0.013107203
0.03764398 -0.023102839 -0.032202445 -0.0065245084 -0.038758237 0.0065933242 -0.047276556 -0.054494657
0.013877643 -0.01610332 -0.024976071 -0.013552149 0.057405807 -0.053311493 0.045064002 0.0116265565
00000000: 6d9a 63bd 277a 01b9 4a95 8dbd 8107 9abd
00000010: e412 f1bc dac7 d93c 6d85 a03c 8a6d 69bd
00000020: a558 9ebd 2c9f 90bd 2198 16bd ddf9 a4bd
00000030: 654e b5bc bb5c 91bd 09dc 35bd 914b 483d
00000040: 5f57 57bd 46f5 08bc 9ebf acbd eb92 35bd
00000050: 0781 2abc 6b61 e93c 789b 823c 29de 4dbd
00000060: c04a dabc c0a6 ccbc e1cc 2bbc da2a 523d
00000070: ce6b 083d 7c0d 32bd 392c a63b 29a9 5cbd
00000080: 8e80 b3bc 9d07 ac3c 5070 813c faf6 1d3d
00000090: b16b ddbc 296b 76bd 18b7 da39 e8d7 983c
000000a0: ccfe f83a c7e3 233d 8c76 6ebd 6a07 b13c
000000b0: d6f7 2a3b c318 6ebd dbb5 a63c 1c23 a3bd
000000c0: d145 02bd b6d4 81bd 22f2 5cbd d771 373d
000000d0: 1d6b 5bbd 209d 94bc 866f 1bbd 184e ebbc
000000e0: 489b 44bd ce4c 0ebd e703 afbd f824 493d
000000f0: a041 b4bc 83bc 0ebc 2f20 c6bd dcee 28bd
00000100: 5083 05bc 1eb7 88bd 55d8 0fbd 3cc8 093c
00000110: b806 40bd df85 5abc 7a3c 90bd 1d19 233d
00000120: 5ced 843b 570f 9c3c 03fa 65bc 6455 313a
00000130: 27b3 eabc a2ca b4bd 673c 17bd e303 0c3b
00000140: 8ca7 81bd 2ad1 023d 3459 e53c 1408 473d
00000150: 5067 4fbb dc13 0d3d 5d14 88bd e863 893a
00000160: 7994 3ebd d01c 5dbc 2a52 e9bc b27a 373d
00000170: cc35 5fbd 0031 c0bc 6267 8fbd 0bbf 833b
00000180: 311e 6dbd daa0 e73c 3e73 9b3c 7154 e23b
00000190: 91c6 e6bb a1ee 323b 368a 7abd 8ce0 1bbd
000001a0: 38f1 babd 69e8 393d 1c85 fbbc 08cb 72bc
000001b0: 323c a43c a002 2a3c bcf5 663b bc99 b03c
000001c0: 7607 b2bd 1093 05bd ccee 663d 27b9 163d
000001d0: 9bf3 13bc d234 66bd f785 9abc f0c5 6a3c
000001e0: e29d 81bc 380e b63c df1e 0ebc bcf6 c1bc
000001f0: e08c 15bb ee7f 2d3d fdb1 09bd b458 6c3d
00000200: fcc4 e2bb 2b59 9dbc 58d8 2ebd 505a 7cbd
00000210: 848d 253d baf3 e83c ef0e fe3a b2bb 5abd
00000220: a813 6cbd 015a 27bd 5879 0b3d 4900 84bd
00000230: 6a46 3bbc e8a2 54bd 95eb 20ba b748 f83c
00000240: a9db abbc c1fa 4fbd 46ad 66bd 0c7b 343d
00000250: 4ab1 f73c 2300 013d feac ae3c d332 8fbd
00000260: 0014 8ebb c2ab 5e3d 583e 013c 4c63 cf3c
00000270: 360a e53c e486 fbbc 9f5f 9d3c 3f74 9abd
00000280: 4e5f b0bc 4f8d 383d c6d2 323d 5e98 76bd
00000290: 6eb1 95bd 767a e83c 8d8d 0fbb add8 94bb
000002a0: 1a05 39bc 4d72 72bc 0a35 743d 4279 5f3c
000002b0: 3165 6abd 2f1f febc be90 acb9 e7ea 4dbc
000002c0: 248c e73b 3ac8 953c b814 933c a03a 833b
000002d0: a2c6 08bd b0c6 d73c 6738 a9b8 a0d1 c33c
000002e0: 7031 613c 5635 27bd d095 503d 1825 a93c
000002f0: 004c b23c 6bec 873c af08 953b b071 32bd
00000300: 1a77 06ba d55e 303d 9746 94bd 8d70 6ebb
00000310: 2c14 3f3d 5a4a 393d 515a 4dbd 5d6e 3b3c
00000320: 7cb7 903c ac72 d93c 80f1 d939 d67a 07bd
00000330: c167 8bbd 8ba4 91bc 5b4d 953c 69d7 47bd
00000340: d2ff 88bd d356 263a 3d89 9abc cc31 27bd
00000350: bcb0 98bd bec4 01bc 7fc7 a83c c806 3f3d
00000360: e6d4 36bd 0e82 393d c378 c3bc 88d0 4c3c
00000370: 9e93 75bd 2456 6b3d 1a3b acbc 5f18 c9bc
00000380: dfa5 98bd c909 8d3c c771 78bd 170a 60bd
00000390: 437d 5abd b499 73bb 12cd 08bd 26e6 bcbc
000003a0: 625f 033d a6cc 033d c005 f1bb 1a9d 51bc
000003b0: 8697 92bc b57d ecbc 018d 9dbc 98bf 563c
000003c0: 9330 1a3d 2a42 bdbc b6e6 03bd 8bcb d5bb
000003d0: f5c0 1ebd d00c d83b 10a5 41bd ca35 5fbd
000003e0: 0e5f 633c 1ceb 83bc 9e9a ccbc d509 5ebc
000003f0: 5a22 6b3d 275d 5abd 0895 383d 507d 3e3c

fc.0.bias f4 [128]
-0.08355635 0.011299106 -0.015713612 0.21717204 0.050682798 0.099050865 0.0050563365 -0.028891202
0.042517453 0.029531213 0.08411461 0.14984599 -0.06565382 0.08613007 0.05124351 0.009359477
0.12623897 0.106843635 -0.03187839 0.045599516 0.033015348 -0.0029049518 0.014264835 0.027783096
0.025212822 0.123950824 0.18098669 0.00661096 -0.075824566 -0.043191552 -0.013336265 0.030164333
0.06186509 0.16094759 0.02303093 -0.043671247 -0.013100178 0.09239409 0.091732755 0.13490164
0.041237522 -0.06579974 0.04954771 0.15534368 0.12608431 -0.06471802 -0.05128573 0.06785388
0.17232363 0.023389956 0.12395224 -0.025476633 0.17541005 0.065097205 -0.008644474 0.065775506
0.018041277 0.10772001 -0.08468613 0.019188613 -0.0025874032 0.13331072 0.09069275 0.1565268
-0.06065182 0.14947923 -0.04468018 -0.052042466 -0.09442176 0.029859185 0.121617034 -0.0041030445
0.164614 -0.0988585 0.1775476 0.15222003 0.022363832 0.09721318 0.0049984995 0.071972586
0.0449094 -0.03845584 0.06915881 -0.018456383 0.13159186 0.09903919 -0.09947956 0.015741019
0.08158731 0.114005096 -0.041643497 0.0008369204 0.1322335 -0.039910987 0.14867847 0.1647785
-0.02249927 0.115700446 0.12105638 0.07850036 -0.04531446 -0.006502872 -0.085319385 0.11795652
0.08062832 -0.090124555 0.21358298 0.14496699 0.10691992 0.12452981 0.14468394 0.15996742
-0.023215031 -0.081052415 -0.07276378 0.15677465 -0.033688 -0.0049308045 0.12928018 0.14836685
0.02451311 -0.034503166 0.15161186 0.13483343 0.19307029 0.07480125 0.18863952 0.19704619
00000000: 971f abbd e31f 393c d5b9 80bc 5962 5e3e
00000010: c498 4f3d 2edb ca3d a0af a53b 3ead ecbc
00000020: c826 2e3d 71eb f13c 4844 ac3d 3a71 193e
00000030: 8375 86bd f664 b03d b7e4 513d 7e58 193c
00000040: ca44 013e d6d0 da3d ea92 02bd 8fc6 3a3d
00000050: 1a3b 073d 0161 3ebb 0eb7 693c 6099 e33c
00000060: 1f8b ce3c eed9 fd3d 9354 393e c0a0 d83b
00000070: e949 9bbd a0e9 30bd 5a80 5abc 311b f73c
00000080: 4066 7d3d 72cf 243e 5cab bc3c 9fe0 32bd
00000090: 21a2 56bc 1d39 bd3d 62de bb3d a823 0a3e
000000a0: ade8 283d 04c2 86bd 8af2 4a3d 6a12 1f3e
000000b0: 3f1c 013e e28a 84bd fc10 52bd faf6 8a3d
000000c0: 9b75 303e 4b9c bf3c acda fd3d 5fb4 d0bc
000000d0: b19e 333e af51 853d 8da1 0dbc 4fb5 863d
000000e0: 4dcb 933c 4f9c dc3d ec6f adbd 7031 9d3c
000000f0: 6c91 29bb 9b82 083e 1fbd b93d 9048 203e
00000100: 0b6e 78bd 1511 193e 9002 37bd 7b2a 55bd
00000110: 3260 c1bd 409b f43c 5a12 f93d d572 86bb
00000120: 9390 283e 5376 cabd 0acf 353e 91df 1b3e
00000130: 5b34 b73c b417 c73d 74ca a33b 5d66 933d
00000140: ebf2 373d df83 1dbd 22a3 8d3d d731 97bc
00000150: 04c0 063e 0fd5 ca3d f1bb cbbd 4ff3 803c
00000160: 3f17 a73d 817b e93d 5f92 2abd c764 5b3a
00000170: 3868 073e b479 23bd 2b3f 183e b2bb 283e
00000180: 6450 b8bc 5bf4 ec3d 68ec f73d ccc4 a03d
00000190: a89b 39bd 0b16 d5bb eebb aebd 3093 f13d
000001a0: 7620 a53d 3993 b8bd 7fb5 5a3e 3a72 143e
000001b0: d5f8 da3d 7c09 ff3d 0728 143e 80ce 233e
000001c0: 732d bebc cffe a5bd 2d05 95bd 8989 203e
000001d0: 6efc 09bd 9692 a1bb 0662 043e 7bed 173e
000001e0: b8cf c83c 3153 0dbd 2440 1b3e c611 0a3e
000001f0: 38b4 453e 6631 993d b82a 413e 7ac6 493e

fc.2.weight f4 [2, 128]
-0.021667806 -0.117582925 -0.012033613 -0.3331592 0.15856764 0.21317714 0.037712447 0.40198097
-0.05949175 0.0013279866 0.22921017 0.14344491 0.03343281 0.11370846 -0.061437752 -0.05888341
0.1675669 0.21186735 -0.025581896 0.25778666 -0.043058746 -0.012703382 -0.06726973 -0.050635252
-0.06524836 0.24236637 0.21040387 0.054734122 0.014782451 0.103198096 -0.04535322 -0.04147624
0.074812956 0.17310938 0.2531302 -0.0023253306 -0.06639548 0.07490067 0.23411296 0.22787581
-0.06360623 -0.054587685 -0.06433422 0.13387711 0.21387376 0.0124697145 0.0056102723 -0.34029257
0.20875855 -0.059763394 0.19674566 -0.0399191 0.18791395 0.11233462 -0.04694842 0.15263736
-0.07511722 0.23206724 0.0619046 -0.17119654 0.046238713 0.14916237 0.023043834 0.14766063
-0.061316404 0.18910077 0.08478581 -0.05134401 -0.026402896 -0.044164877 0.113562405 -0.07819387
0.11736333 -0.07743966 0.12599064 0.22950031 0.21632871 0.15066405 -0.062504895 -0.091022566
0.5680938 0.013869554 0.17232017 -0.026563331 0.23357764 0.22592784 0.018622227 -0.06481334
0.18097706 0.2507728 0.0408712 0.15114921 0.20743413 -0.047669943 0.22882 0.21262851
-0.105559535 -0.592959 -0.7482111 0.16364112 0.0513459 -0.02540054 0.07113042 0.20594078
0.22273816 -0.025564589 0.36208737 0.2053009 0.17202303 0.060415167 0.21005887 0.12096308
-0.043978937 0.07027247 -0.42874324 0.24976808 -0.41900432 0.017834876 0.12434089 0.27082938
0.26138622 -0.021183461 0.20510262 0.08489807 0.18359534 0.12754723 0.21495433 0.14649858
0.013457242 0.3117486 -0.0035362341 -0.8263684 0.11423082 -0.025517799 0.07531 0.31755275
-0.009375428 -0.06485309 0.18371746 0.18042774 -0.026663888 0.18714243 0.03775676 -0.05048111
0.20811994 0.0343762 -0.059852738 0.06255708 -0.0714868 -0.05618889 0.020763151 -0.0076917238
-0.014881305 0.18900667 0.16325496 -0.05477267 0.009210349 -0.020884443 -0.039648615 -0.072454534
0.15088436 0.17017561 -0.40279356 -0.0039011028 -0.050283466 0.3163341 0.18582791 0.21026789
-0.062079642 0.022079919 0.065638185 0.15337098 0.21076128 0.06577055 -0.008725606 -0.48415947
0.15039352 -0.038454022 0.17163241 0.0007395681 0.12251315 0.20171495 -0.0054270476 0.14335774
-0.013024427 0.084649235 -0.056303024 0.26147014 -0.04098314 0.20018438 0.23760659 0.18110946
-0.027669376 0.19177455 0.036911223 0.04835888 0.017289342 -0.07860453 0.26857874 -0.048466556
0.18732761 -0.033403527 0.1787832 0.17242484 -0.0400388 0.20669177 0.0015193656 0.2900663
0.080939054 -0.03232016 0.30536684 0.09218595 0.1591125 0.16730647 -0.018085971 0.007320224
0.14170769 0.033756416 -0.063699774 0.14904937 0.094769955 0.008003129 0.17530243 0.21840888
-0.68606293 -0.12549523 -0.24033807 0.21102794 -0.022673681 0.015762331 0.033496056 0.10877521
0.05085206 0.026315788 -0.8927493 0.20548598 0.14237255 0.23608088 0.14839368 0.19677229
-0.008726982 0.015121962 0.19151275 0.089438245 -0.092660464 -0.011197299 0.16802092 0.2922534
0.4616567 0.023046723 0.3162398 0.2435576 0.20764863 0.20959024 0.21706903 0.22551066
00000000: af80 b1bc 51cf f0bd a228 45bc d893 aabe
00000010: 8e5f 223e 1c4b 5a3e 5e78 1a3d 73d0 cd3e
00000020: 9fad 73bd d60f ae3a 12b6 6a3e 39e3 123e
00000030: d8f0 083d fbdf e83d 27a6 7bbd bb2f 71bd
00000040: a896 2b3e c1f3 583e 2091 d1bc 9dfc 833e
00000050: 5e5e 30bd d921 50bc b6c4 89bd e966 4fbd
00000060: efa0 85bd e42e 783e 1d74 573e e330 603d
00000070: 1832 723c 8659 d33d 4cc4 39bd fde2 29bd
00000080: 8937 993d 9643 313e 489a 813e 9364 18bb
00000090: 5afa 87bd 8665 993d 4fbb 6f3e 4758 693e
000000a0: fc43 82bd 5697 5fbd a9c1 83bd 1517 093e
000000b0: b901 5b3e c64d 4c3c 60d6 b73b d43a aebe
000000c0: cdc4 553e 76ca 74bd b277 493e 3682 23bd
000000d0: 846c 403e b10f e63d fd4c 40bd f84c 1c3e
000000e0: 0fd7 99bd 09a3 6d3e ae8f 7d3d 254e 2fbe
000000f0: ce64 3d3d 05be 183e 6cc6 bc3c 5934 173e
00000100: e926 7bbd a2a3 413e 2fa4 ad3d 194e 52bd
00000110: e34a d8bc 3be6 34bd 6893 e83d 1c24 a0bd
00000120: 305c f03d af98 9ebd b103 013e 2102 6b3e
00000130: 4685 5d3e ad47 1a3e 9102 80bd 0a6a babd
00000140: 986e 113f 203d 633c b374 303e 589b d9bc
00000150: fa2e 6f3e a159 673e a48d 983c dbbc 84bd
00000160: 0d52 393e 4b65 803e 8f68 273d dcc6 1a3e
00000170: 9d69 543e 8f41 43bd ca4f 6a3e 4abb 593e
00000180: 992f d8bd 29cc 17bf c38a 3fbf 8a91 273e
00000190: 1450 523d cb14 d0bc d3ac 913d 24e2 523e
000001a0: 7915 643e d46c d1bc 8463 b93e 663a 523e
000001b0: ce26 303e e575 773d ac19 573e 7ebb f73d
000001c0: 4223 34bd 03eb 8f3d 3c84 dbbe 34c3 7f3e
000001d0: bc87 d6be 721a 923c 70a6 fe3d 26aa 8a3e
000001e0: 6ad4 853e f088 adbc 6c06 523e 0adf ad3d
000001f0: 6b00 3c3e be9b 023e fd1c 5c3e b903 163e
00000200: c47b 5c3c 839d 9f3e 2ac0 67bb e18c 53bf
00000210: d9f1 e93d b40a d1bc 213c 9a3d 4696 a23e
00000220: 659b 19bc b2d1 84bd 6e20 3c3e 0dc2 383e
00000230: 3a6e dabc 44a2 3f3e d5a6 1a3d 48c5 4ebd
00000240: 651d 553e 0fce 0c3d 2528 75bd ed1d 803d
00000250: ac67 92bd 5226 66bd 7c17 aa3c db0a fcbb
00000260: b8d0 73bc f78a 413e 4f2c 273e 4f59 60bd
00000270: 01e7 163c da15 abbc 9666 22bd 0b63 94bd
00000280: 6e81 1a3e 8442 2e3e f53a cebe a5a9 7fbb
00000290: 09f6 4dbd 8bf6 a13e ac49 3e3e 7750 573e
000002a0: 3947 7ebd f2e0 b43c 506d 863d 480d 1d3e
000002b0: ced1 573e b6b2 863d d8f5 0ebc c0e3 f7be
000002c0: c200 1a3e f781 1dbd 68c0 2f3e 93df 413a
000002d0: 2de8 fa3d 5d8e 4e3e 60d5 b1bb 5fcc 123e
000002e0: 6864 55bc 945c ad3d 009e 66bd 6adf 853e
000002f0: f0dd 27bd 22fd 4c3e 244f 733e c274 393e
00000300: e3aa e2bc 8c60 443e 3930 173d f613 463d
00000310: 61a2 8d3c 69fb a0bd 2783 893e de84 46bd
00000320: cfd2 3f3e 23d2 08bd f112 373e 2390 303e
00000330: baff 23bd 02a7 533e 7325 c73a 9283 943e
00000340: 60c3 a53d 2562 04bd 0b59 9c3e fdcb bc3d
00000350: 63ee 223e 6352 2b3e 0829 94bc 7dde ef3b
00000360: d21b 113e 2b44 0a3d 0775 82bd 66a0 183e
00000370: c016 c23d 8e1f 033c 7b82 333e 94a6 5f3e
00000380: d2a1 2fbf d281 00be 2f1b 76be b517 583e
00000390: 28be b9bc 0120 813c 2933 093d 8ac5 de3d
000003a0: 404a 503d 3594 d73c 388b 64bf eb6a 523e
000003b0: 1cca 113e 30bf 713e 83f4 173e ad7e 493e
000003c0: 9efb 0ebc 1bc2 773c eb1b 443e 662b b73d
000003d0: c5c4 bdbd e074 37bc ad0d 2c3e 3da2 953e
000003e0: 445e ec3e 7bcc bc3c 2fea a13e 2a67 793e
000003f0: d8a1 543e d39e 563e 5847 5e3e 44ec 663e

fc.2.bias f4 [2]
0.09115167 0.21506053
00000000: baad ba3d d438 5c3e
