data/0109-0008checkpoint_dqn.pth (torch_old, 169595 bytes, 12 tensors)

encoder.0.weight f4 [64, 4]
000000 27 4a 85 bd f0 c3 5f 3e 18 3e 47 bf 59 37 16 bf
       -0.06508284 0.21852088 -0.7782912 -0.58678204
000010 08 e6 bc 3c f3 7b ee bd 40 1f 21 bf 53 2e 0e bf
       0.023058906 -0.11644735 -0.6293831 -0.55539435
000020 eb f2 1a 3e fa 86 b0 3e 5a e8 6c bf e3 77 ab be
       0.15131728 0.3447798 -0.9254204 -0.33489904
000030 93 9d 29 bd cb 38 96 3e 02 8f e2 3e bc 58 e6 3e
       -0.04141004 0.29340205 0.4424973 0.44989574
000040 ea 2f 38 3e 67 8f 0e 3f ff c7 c8 3e d9 7c 7b 3e
       0.17987028 0.55687565 0.39215085 0.24559344
000050 84 a0 08 be ab 1f b9 3e b8 bd 84 3f 0b aa 28 3f
       -0.13342482 0.36156973 1.0370398 0.65884465
000060 87 06 aa 3e f1 96 8b 3d a5 0b 0b bf d7 0f 1d 3e
       0.33208105 0.06815899 -0.54314643 0.15338074
000070 eb 1e e5 be 93 65 12 3f 9b b1 88 3e cd 72 bd be
       -0.4475015 0.5718624 0.26698002 -0.3700165
000080 b2 1a 9c 3e 6e f0 0d bf 52 c6 a1 be 93 33 8e 3c
       0.30489117 -0.5544499 -0.3159662 0.017358577
000090 f4 a7 30 3f 19 60 60 bf 5d df 8d bf 46 20 be be
       0.69006276 -0.87646633 -1.108379 -0.37133998
0000a0 4f 21 cc bd f7 46 a1 3e 18 ff 1f 3e 79 cb 9b be
       -0.099672906 0.31499454 0.15624654 -0.30428675
0000b0 05 44 2e bf 53 01 cc 3e 60 bf af 3e c2 52 e3 be
       -0.6807254 0.3984476 0.34325695 -0.44399077
0000c0 61 56 34 3c 95 43 37 be fe 38 63 3f 9a 7b dc 3e
       0.011006922 -0.17896874 0.8875884 0.4306305
0000d0 72 29 96 3e 65 b2 5f 3e fe 17 a9 3e 9f 04 84 3e
       0.29328495 0.21845396 0.33026117 0.25784776
0000e0 b9 c9 8d 3e 14 29 07 bf 87 92 a6 bf d1 29 66 3e
       0.27692965 -0.52797055 -1.3013467 0.22476889
0000f0 a9 d1 05 3e eb 16 0e bf f2 81 58 bf af 0f b0 bd
       0.1306826 -0.5550372 -0.8457328 -0.085967414
000100 e7 42 7a 3e 21 8c 74 3d da 53 5d 3e b0 1b 3c bc
       0.24439584 0.05970395 0.21614018 -0.011481211
000110 5c 06 31 bf 54 87 1f 3e 1c 45 3d 3e 14 d1 0c 3f
       -0.6915033 0.15578967 0.18483394 0.5500653
000120 da e3 07 3f d6 43 92 3e 24 72 7e 3f da 80 ee 3e
       0.5308205 0.2856738 0.99392915 0.4658268
000130 60 6c 0b 3f 97 19 fa 3e ef 80 79 3f a0 8a 0e 3f
       0.5446224 0.48847649 0.9746236 0.55680275
000140 a2 88 c6 be ee fe bf 3c 21 c6 91 be 44 52 f5 bc
       -0.38776118 0.02343699 -0.28471473 -0.029946454
000150 24 3d 9f bd 3f fa 74 be 96 ea 25 3e 54 ba de be
       -0.077753335 -0.23923586 0.16202769 -0.43501532
000160 55 2d c5 3e cc cd 81 3e ff ec 01 3f 61 33 8e 3d
       0.38511148 0.25352323 0.5075225 0.069433935
000170 89 0e 0d 3f 94 b7 59 3e b8 ab 15 bf 81 8c 7d 3d
       0.55100304 0.21261436 -0.58465147 0.061901573
000180 32 b5 3b 3b 50 ae 21 3d 90 90 f8 3d cb 57 d9 3d
       0.0028641936 0.039472878 0.12136948 0.10612448
000190 29 74 e2 3e 04 af 2f bf af 0d a6 be 82 8b f8 bd
       0.44229248 -0.6862643 -0.32432315 -0.12135984
0001a0 18 c5 30 3e 4c a5 23 be 9f 0e 5e be 62 cb a6 be
       0.17262685 -0.15981025 -0.21685265 -0.32577044
0001b0 41 8f a8 be a0 0a 56 3e a0 d9 91 3f 99 bc b2 3e
       -0.32921794 0.2090249 1.1394539 0.34909514
0001c0 6f 9b 25 3e 13 b6 c2 3d e7 2d 2f bf 23 89 01 be
       0.16172574 0.09507384 -0.68429416 -0.1264997
0001d0 51 5c fc bd b1 db 80 3e 48 85 a4 bf 55 fc 05 bf
       -0.123222955 0.2516761 -1.2853174 -0.52338153
0001e0 b6 17 d6 bd 8b 61 f1 be 6e 85 3c bf 68 dc ad bd
       -0.10453741 -0.47144732 -0.736411 -0.08489305
0001f0 fe 0c 26 3e 9c f6 7f 3f 0a 13 d2 3d 23 e2 8e 3e
       0.16215894 0.9998567 0.10257538 0.27906904
000200 8f 8a b7 3e db b6 1d 3f a2 08 97 3e 34 0f cd 3e
       0.358479 0.6160714 0.29498774 0.40050662
000210 30 fa 87 be 7e 68 ac bd 23 85 b6 3e 44 94 83 bd
       -0.26558065 -0.08418368 0.3564845 -0.06424764
000220 c9 b4 02 3e 75 df 24 be df 03 95 3a fb d2 3d 3f
       0.12764277 -0.16100867 0.0011368952 0.74150056
000230 70 09 e9 bd 0c 51 5e 3e e8 d4 de 3d 48 30 8f 3d
       -0.11378753 0.21710604 0.108804524 0.06991631
000240 ad 09 32 3e c4 9b 83 be 8d a0 0e bf cb 7c 2d bf
       0.17386504 -0.25704777 -0.5571373 -0.67768544
000250 83 82 6f bd 4a 79 40 3c fc a9 6e bf c1 e8 2c be
       -0.058474075 0.011747668 -0.93228126 -0.16885664
000260 0d 3f d8 be ff a9 e3 3d 73 7a 36 bd da ad e0 3e
       -0.42235604 0.111164086 -0.04455037 0.43882638
000270 6d 9a a9 3e 52 e2 af 3e 2b 6b a8 bd 28 ab 4f 3e
       0.3312563 0.34352356 -0.08223566 0.20280135
000280 cb 3f ef be 61 76 48 3d b9 dc 69 3f 9e ff 8f 3e
       -0.46728358 0.04894102 0.9135242 0.28124708
000290 cc 5f e0 3e 0e 37 c0 be 9b f5 4d 3e 72 c5 11 be
       0.43823087 -0.37542003 0.20113222 -0.14235476
0002a0 af cd c2 bd 7d a0 9a be eb 1e 5d bd 35 39 57 be
       -0.09511887 -0.30200568 -0.053984564 -0.21017917
0002b0 6c f6 97 be 93 38 8e be 17 da bb be 19 11 3c bf
       -0.29680192 -0.27777538 -0.36689827 -0.7346359
0002c0 4b 41 0e be 1a f1 90 bd b6 49 37 bf 48 1c 7e be
       -0.13892095 -0.070772365 -0.7159685 -0.24815476
0002d0 9d d3 05 bf 37 e2 ff 3e 37 e4 fc 3e 97 9e 34 3e
       -0.5227602 0.49977276 0.49392864 0.17638622
0002e0 59 9d 6f bc f6 62 a1 be 43 ff 52 3f e2 c9 cd 3e
       -0.014624917 -0.31520814 0.8242075 0.40193087
0002f0 4b e3 0f bf 95 42 cc bc 2a 82 4d be 18 3d 9e 3d
       -0.56206197 -0.024934093 -0.20069185 0.077264965
000300 cb ba cd be 0b 92 e1 be a5 a8 4b bf 5d bc 8e be
       -0.40181574 -0.44056734 -0.79554206 -0.27878085
000310 95 fb 93 be 9e 22 9e be 18 0f 7f bd db 7d 0d 3e
       -0.2890288 -0.30885786 -0.062270254 0.13817541
000320 a9 54 ff 3e 0a a9 13 3e c0 ea 0b bf 17 a9 e5 be
       0.49869278 0.14419952 -0.54655075 -0.44855568
000330 c4 b9 c1 be 6d 3f 20 3f c8 33 d1 3d 6a 8e a5 be
       -0.3783704 0.6259678 0.102149546 -0.32335216
000340 ca 72 f0 3c 88 d0 48 be 30 23 26 bf c6 c0 af be
       0.02935161 -0.19610798 -0.6489744 -0.34326762
000350 17 60 d7 bd d3 7b fe bd 3f 69 79 bf f3 03 d7 be
       -0.105163746 -0.12425961 -0.9742622 -0.419952
000360 16 81 2a 3e 46 68 f6 3a 13 2f 06 bf ad d5 6f 3b
       0.16650805 0.0018799386 -0.5241558 0.0036595867
000370 94 1d c8 bd 58 38 ba 3e b4 68 35 3f 04 ba b1 3e
       -0.097712666 0.36371112 0.7086289 0.3471223
000380 f6 d3 b0 bc d6 b5 c1 be fa 6c 0f be c1 1e c0 bc
       -0.021585446 -0.37834042 -0.14006415 -0.023452165
000390 e1 a3 a4 3e dc 4c 37 3d 84 a3 35 be 31 42 ea 3d
       0.3215628 0.044751033 -0.17738158 0.11438406
0003a0 7f 18 36 bf d1 9c 1f be 2f 43 a7 3f 7c 80 78 bd
       -0.7113113 -0.15587164 1.3067378 -0.060669407
0003b0 9c ec c9 be 43 ac 64 3d 9a dc 91 3f 39 3a 0d 3f
       -0.3943833 0.055828344 1.1395447 0.55166966
0003c0 3f 04 d6 bd 79 ad ea bd 8a 9f fa be 05 c2 89 be
       -0.10450029 -0.114588685 -0.48949844 -0.26905838
0003d0 3b 10 26 be 2c 1e db be 2c 2b 0c bf dd 3d 89 3e
       -0.16217129 -0.42796457 -0.54753375 0.2680501
0003e0 58 63 2e bf 1a 21 40 be e3 90 2f bf 12 a9 f4 bd
       -0.68120337 -0.18762627 -0.68580455 -0.1194631
0003f0 c0 a2 f3 bc 10 9b fd 3d a8 04 f8 3d b8 17 c3 3d
       -0.029740691 0.123830914 0.12110263 0.09526008

encoder.0.bias f4 [64]
000000 89 d2 b3 be 43 3e cb be cb 0d 61 3d 43 ab 89 3e
       -0.35121563 -0.3969594 0.054944795 0.26888475
000010 81 c9 a1 3e 54 a5 d3 be bc 54 53 3e f6 18 a8 3d
       0.31599048 -0.41337073 0.20637792 0.08207886
000020 46 95 ef 3e a8 f9 3f be 8b 5f f9 3e d3 88 ac 3e
       0.46793574 -0.1874758 0.48705706 0.3369814
000030 29 6d 72 be 58 55 95 3e 2c f3 8c bc 58 65 cf 3e
       -0.23674454 0.29166675 -0.017205797 0.40507007
000040 56 20 a3 3e 32 38 bb bc aa ce 82 be 99 75 07 be
       0.31860608 -0.022853944 -0.25548297 -0.13228454
000050 d1 96 1a 3d 88 21 09 3f f3 c8 4f 3e 4f 4b f5 bc
       0.037741486 0.5356679 0.202915 -0.029943136
000060 47 6a 19 3f 57 62 dc 3d 03 cf 09 3f 07 ac 92 be
       0.5992779 0.10760944 0.538315 -0.2864687
000070 7b c7 10 3f 79 fe d6 be 14 db bc 3e 74 73 6b bd
       0.56554383 -0.41991022 0.36885893 -0.05748315
000080 d4 ac 89 bd 84 48 e7 bb 95 07 6d be 1a e3 c2 be
       -0.067224175 -0.007058205 -0.23147424 -0.3806389
000090 32 4e 4b bd 61 0e 3f 3e 28 74 d7 bd e6 e9 3b 3e
       -0.04963512 0.18657829 -0.10520202 0.18350944
0000a0 19 34 74 3e e6 9e d3 3e fa 4c 3b 3e 15 ce 97 be
       0.23847999 0.41332167 0.18291083 -0.29649416
0000b0 17 9f 4c be 14 ca 9c 3e bb a1 03 bf 38 b8 58 3d
       -0.19982563 0.30622923 -0.51418656 0.05291006
0000c0 43 7e 7d bc a9 a8 00 3f 73 f7 29 bd 83 b9 84 bd
       -0.015471998 0.50257355 -0.04149575 -0.06480696
0000d0 44 33 a1 3e 48 59 ab be 01 9a 2a 3e 7e fc a3 3e
       0.31484425 -0.33466554 0.1666031 0.32028574
0000e0 98 67 09 3f 40 55 ff be 7a de 76 bd b0 98 a4 be
       0.53673697 -0.49869728 -0.060270764 -0.3214774
0000f0 98 8f a9 3e 80 91 ed 3e b4 97 8a 3d f6 1c ab be
       0.33117366 0.4640007 0.06767216 -0.33420533

encoder.2.weight f4 [64, 64]
000000 7d 38 8a 3d 58 21 ac bd 9e bf 36 bd 98 bd 0c be
       0.067490555 -0.08404797 -0.044616334 -0.137442
000010 f2 30 b0 3d 73 93 86 be be ed f3 bd f7 87 25 3e
       0.086030856 -0.2628437 -0.1191058 0.16165148
000020 45 9b b6 3d b6 15 25 3f 50 82 aa 3b b7 3a eb 3c
       0.08916334 0.64486253 0.0052035227 0.02871452
000030 57 13 bd 3e 29 f4 1c 3e 11 69 00 3f 68 fe e1 3d
       0.36928818 0.15327515 0.5016032 0.11034852
000040 8a 63 0a 3d 4c 33 d8 3a 84 3c 08 bf 3b b4 88 be
       0.033786334 0.001649478 -0.5321734 -0.26700005
000050 1f a3 9b be 3c 35 a1 3c 7d 5e 11 bd f3 7e c4 be
       -0.3039789 0.019678704 -0.0354905 -0.38378105
000060 7e ba 4d 3e 59 c6 ce 3d 6a bf 63 bd 33 37 0c bf
       0.20090672 0.100964256 -0.05560247 -0.5477173
000070 a3 4a 9c 3d f1 ac 61 be 1e e8 16 bc 29 9d a2 be
       0.07631423 -0.22038628 -0.0092106145 -0.3176053
000080 a3 a2 76 be bb 2a e8 3c 84 5f 1d 3f 5e 3e e5 bd
       -0.24085478 0.028340688 0.6147387 -0.11193536
000090 44 3a 84 3e bd 3b 84 bd 3f 64 15 3c f5 74 1f bc
       0.25825703 -0.06456707 0.009118139 -0.009732475
0000a0 33 f2 29 3e 74 fa fd 3d dc 42 27 bc ad 6c d4 be
       0.16596298 0.12401286 -0.010208812 -0.41489163
0000b0 26 09 c6 be 24 5d 82 3e f6 7b 5a 3e 29 60 53 bd
       -0.38678855 0.25461686 0.2133635 -0.051605377
0000c0 7b a4 03 bf a3 33 ad 3d 06 bd 53 bd 53 f3 5b 3e
       -0.5142285 0.084571145 -0.05169394 0.2147954
0000d0 08 7b ab 3c 8d 64 08 bf cf 95 ed 3c 8c 00 d8 3d
       0.02093269 -0.5327843 0.029002098 0.10546979
0000e0 80 10 f1 3d 9c 51 9e 3d 9e f1 39 bf 9d fc 16 be
       0.11770725 0.077304095 -0.72634304 -0.14744802
0000f0 51 d9 98 3d 4e 99 83 3d c9 20 56 be 40 7e 55 bc
       0.07463325 0.06425725 -0.20910944 -0.013030589
000100 d8 ad 5d be 55 82 1a bf 1e 3a d0 bd 47 c4 2b be
       -0.21648347 -0.6035512 -0.10167335 -0.16774093
000110 66 49 1d 3e ca 6a 0e bf 79 b5 d5 3d ef e2 fd bb
       0.1536003 -0.556317 0.10435004 -0.007748
000120 cf 36 61 bc 9d 03 65 3f 68 b9 99 3d 2f 30 07 3d
       -0.013745978 0.8945864 0.075060666 0.033004936
000130 ca 47 0e be 0e 3c 7e 3e 42 f0 b0 3e b3 e2 b2 3d
       -0.13894573 0.24827597 0.34558302 0.08734646
000140 7f e7 3c 3d 1d dd 8c be f1 6f 72 be c6 50 ca be
       0.04611921 -0.27512446 -0.23675515 -0.3951475
000150 ce 3c 3b bd 90 40 8d 3d 6e 17 47 3e 5d 8b 4d 39
       -0.045712285 0.0689708 0.19442531 0.0001960224
000160 ff 1b 8b 3d 55 f6 a3 3d 9d f7 dd 3d 20 94 3b bf
       0.06792449 0.080059685 0.10838244 -0.73272896
000170 cf 45 71 3e fd 9c 00 bf 85 98 2e 3e 28 a1 99 3e
       0.23561786 -0.50239545 0.17050369 0.30005765
000180 fd 05 81 3c 64 5b 40 3d c5 9f 45 3d 74 be 07 bd
       0.015749926 0.046962157 0.04824807 -0.033140615
000190 52 35 ce 3d 3d 3b d5 bd 6c d8 fa bb fa 34 8b 3a
       0.10068764 -0.104116894 -0.007655194 0.0010620647
0001a0 cd e0 16 be af ac c2 3d a8 1e 91 3d 6d 3d b3 be
       -0.14734192 0.09505593 0.07085925 -0.35007802
0001b0 11 40 8d be 28 87 56 3e 2e fc 84 3a 42 30 1b be
       -0.2758794 0.20949996 0.0010145956 -0.15155128
0001c0 7d f2 51 be ad e7 8e bd 68 96 56 3d 5d 47 bf 3d
       -0.20502658 -0.069777824 0.052389532 0.09339783
0001d0 85 12 14 3e 92 a9 10 bf 4e 80 3c 3e aa f7 b0 bd
       0.1446019 -0.56508744 0.1840832 -0.08640988
0001e0 7a cf ae 3c 66 a5 11 3e 79 a2 ac be f4 bc 8b be
       0.021339167 0.14223251 -0.33717707 -0.27292597
0001f0 52 20 28 3e fe 5d 77 3d 0c 16 04 3d ac 8f 4a 3d
       0.16418579 0.060392372 0.032247588 0.049453422
000200 63 5b ac bd af 73 00 bf f9 78 64 bd 16 1a 24 bc
       -0.08415868 -0.5017652 -0.05577943 -0.010015985
000210 bf 98 62 3e 48 57 2e bf 10 e9 44 3e 4f 9e 24 3d
       0.2212858 -0.6810193 0.19229531 0.040190037
000220 6f 01 22 3e 9d 47 68 3f 43 9d b1 bc 25 36 ec 3c
       0.1582086 0.90734273 -0.021681434 0.028834412
000230 bc 34 b4 3c ab a1 23 3e 60 de 94 3e db 61 9e 3d
       0.021997802 0.1597964 0.2907591 0.07733508
000240 5b 53 2f 3e 35 6f a4 be b8 6f ce be c1 49 e2 be
       0.17121641 -0.32116094 -0.4031961 -0.44196895
000250 ac d8 26 be c1 34 07 3e fb 60 63 3e 38 f7 12 3c
       -0.16293591 0.13203718 0.22204964 0.008970074
000260 59 62 dc 3d 84 56 06 bd 4b f2 04 3e c8 33 43 bf
       0.10760946 -0.03279735 0.12983052 -0.76250887
000270 d5 74 51 3d 50 86 e5 be 23 dd 27 3e a8 18 50 3e
       0.05113681 -0.44829035 0.1639295 0.20321906
000280 5d d5 7e bc 6b 63 dd 3d c0 66 12 3e c8 fe d5 3c
       -0.015553799 0.10809978 0.14297009 0.026122466
000290 e2 ed b9 3d d1 c1 e1 bd 52 c4 c9 bd b3 03 3c 3e
       0.09078576 -0.11023296 -0.09851898 0.18360786
0002a0 bd 6a 31 bd 63 96 8a 3d b7 69 00 bd bf 74 ed be
       -0.043314684 0.06766965 -0.031350818 -0.46378133
0002b0 c6 8f e4 be 34 0b 46 3e 39 f6 7a be 10 ac c2 bd
       -0.4464094 0.19340211 -0.24507989 -0.095054746
0002c0 f8 01 33 be 6d df a3 3d 05 ff 02 be 6f f5 b6 3d
       -0.1748122 0.080015995 -0.12792595 0.089335315
0002d0 bf a7 c7 3d 3f 92 2a bf 75 a1 cb 3d ba b7 22 3d
       0.09748792 -0.66629404 0.09942905 0.039725997
0002e0 bf 13 03 3e 0d 78 d7 bd 64 2e da be 5a cf 18 bf
       0.12800501 -0.10520945 -0.42613518 -0.59691393
0002f0 da 4c 99 ba 74 74 63 3c 2a 04 6c 3d e4 a9 95 bd
       -0.0011695877 0.013882745 0.05762116 -0.07307795
000300 5c ac 5b 3c 6f 89 dd be 36 ca b2 bd d9 ac 13 be
       0.013407793 -0.43268916 -0.08729975 -0.14421405
000310 db bc cc 3d 6f df 0f bf 7c dc 3c bd fa 4f 96 3d
       0.09996959 -0.5620031 -0.046108708 0.07339473
000320 08 58 5c bc f6 d2 49 3f 4c fe bb bd e8 e2 e8 3c
       -0.013448723 0.78837526 -0.09179363 0.02842851
000330 fe 3f 02 3e 19 df 4f 3e 11 ae 9a 3e 04 02 30 3e
       0.12719724 0.20299949 0.30210927 0.17188269
000340 87 ac 38 3b bf 65 6d be 2d bd ea be 53 88 12 bf
       0.0028179006 -0.23183344 -0.45847455 -0.57239264
000350 cc 99 e1 bd 24 c1 57 3d bb e2 e6 bd 9c 8c 80 bd
       -0.110156626 0.052674428 -0.11273714 -0.06276819
000360 2c f6 ff 3d 88 35 04 3e 1c 4e 12 3e 4c c2 3d bf
       0.124981254 0.12911046 0.14287609 -0.741246
000370 27 de 1f 3e 10 a5 ad be d2 c6 fc bc 14 29 dd bd
       0.15612088 -0.33914995 -0.030856524 -0.10798851
000380 96 9d ce be 87 6a be bd ff 4e 72 3e 6c 33 d7 3d
       -0.40354604 -0.09297662 0.23662947 0.10507855
000390 3c 59 5a 3d f9 6b ab ba b0 29 44 be 1f 9d ca bd
       0.053307757 -0.0013078443 -0.19156528 -0.0989325
0003a0 22 58 4c bd d2 f3 16 3e 40 c2 e5 3d 34 ad 98 be
       -0.049888737 0.14741448 0.11218691 -0.29819643
0003b0 af 4e d1 be 9c 22 58 3e 73 08 0e bd eb c5 b9 bd
       -0.40880343 0.21106952 -0.034676027 -0.09070953
0003c0 35 8f 20 be 7c 75 a4 3c cb c0 c8 bd 5c a4 10 be
       -0.15679629 0.020075552 -0.09802397 -0.14125198
0003d0 88 3c ba 3d 2e bc 0b bf 79 37 6a 3d 89 af eb bd
       0.09093577 -0.54584014 0.05718181 -0.1150809
0003e0 ed 52 e6 3d c3 88 eb 3b 24 4b dd be 44 94 bb be
       0.112462856 0.007187934 -0.4322139 -0.36636555
0003f0 06 14 46 3d 0b 9d 15 3e e8 dc 7e bd fe 5a d5 3d
       0.04835894 0.14610688 -0.06222239 0.10417746

encoder.2.bias f4 [64]
000000 07 74 43 3e ce d5 1e 3e d9 cc d6 3d 65 8d 28 3e
       0.1908723 0.15511248 0.1048829 0.16460188
000010 c4 66 2f bd 61 f8 6e 3d 13 43 5d 3e e7 15 cb 3d
       -0.042822614 0.05834234 0.21607618 0.09916287
000020 8c a1 04 3e e6 09 5c 3e d8 f2 b2 bd 37 8d 3f 3e
       0.1295225 0.21488151 -0.08737725 0.18706213
000030 1d 9b 70 3e 48 a6 7b 3e 17 08 09 3e ee 4e 83 3e
       0.23496671 0.2457515 0.13381992 0.25646156
000040 ba 2a 15 3e d0 f6 62 3e d3 60 14 3e 12 34 53 3e
       0.1456708 0.22164464 0.1449006 0.20625332
000050 99 d8 78 3e 3e ab 2f 3e 7d 24 57 3c 52 03 3c 3e
       0.24301375 0.17155167 0.013131258 0.18360642
000060 13 a1 94 3d d1 93 00 3e 2e 2a ae 3d 95 d3 39 3e
       0.07257285 0.12556387 0.08504139 0.18147118
000070 e2 c6 6d 3e ff f7 54 3e f3 20 43 3e 12 4f 54 3e
       0.23220399 0.20797728 0.19055538 0.20733288
000080 f0 f5 3b 3e 3a 6e 27 3e cc 92 e4 3c d3 1b 0b 3d
       0.18355536 0.16350642 0.02790203 0.033962082
000090 f9 75 ce 3d 89 67 51 3e 11 b9 09 3e f0 34 4b 3e
       0.10081095 0.20449652 0.13449503 0.19844413
0000a0 e3 cd 14 3e a0 57 39 3e 84 3a 6e 3e ba 2a 11 be
       0.14531665 0.18099833 0.2326451 -0.14176455
0000b0 55 b3 3a 3e 32 cb 69 3e 85 88 6e 3d 52 e2 70 3e
       0.18232472 0.22831419 0.058235664 0.23523834
0000c0 13 ce bc 3d 42 6c 20 3e 66 2c 61 3e ae c0 80 3e
       0.09218993 0.15666297 0.21989593 0.25147003
0000d0 dc a9 f5 3c 3c 25 98 bd 55 40 6a 3e a6 f3 29 3d
       0.029988222 -0.07428977 0.22876103 0.041492127
0000e0 29 13 85 3e ae aa eb 3c e5 fb 0e 3e f4 af c3 bd
       0.2599118 0.02876791 0.13963278 -0.09555045
0000f0 7c a4 50 3e e8 0b 67 3e 48 b4 4a 3e 40 08 bb 3d
       0.20375246 0.22563136 0.19795334 0.09132433

logits_t.0.weight f4 [32, 64]
000000 b3 84 0d 3e 49 8c 2b 3e 2e 2d 18 3d 71 54 fe bd
       0.13820152 0.16752733 0.03715246 -0.1241845
000010 d4 9a 48 bd f5 de 94 3e 78 dd 94 be 59 92 31 bd
       -0.04897578 0.29076353 -0.29075217 -0.04335246
000020 15 62 47 be 53 64 50 bd 10 55 a8 bc 4b 1c a2 be
       -0.19471009 -0.050876927 -0.020548373 -0.3166221
000030 af d2 69 3e 1c aa d0 3d 6f 7d 06 3e 1d db 0e 3f
       0.22834276 0.10188696 0.13133787 0.5580309
000040 6b 48 c2 bc 56 ad 7d be 6b e2 f9 3d b5 c0 83 bd
       -0.023716172 -0.24773154 0.12201389 -0.0643324
000050 45 9b 93 3d 97 27 a2 bd 5d f7 d0 3a 25 2d d4 3d
       0.0720735 -0.079177074 0.0015942861 0.10360173
000060 e0 d3 57 bf fb 0a 13 bc ac 07 78 be 4d e6 2f 3d
       -0.8430767 -0.008974786 -0.24221677 0.04294424
000070 b2 ad 92 be 09 98 5e 3d 09 0b 51 3e f7 13 31 3e
       -0.28648144 0.05434421 0.20414366 0.17292772
000080 dd d1 a4 bd 0a eb 84 bd 9a a3 04 3e 69 5c dd bc
       -0.08047841 -0.06490143 0.12953034 -0.027021604
000090 ea 9f 6e bd 37 92 91 be 3f 6c 82 be 64 19 0a be
       -0.058257975 -0.28431866 -0.2547321 -0.13486248
0000a0 f1 2b f8 bc ea 12 66 bd 4b 3e 1f be 42 1f c0 3d
       -0.03029439 -0.05617038 -0.15551107 0.09380962
0000b0 82 16 d5 bd e3 69 0c bf d4 80 81 3e eb 87 3b 3e
       -0.10404684 -0.5484907 0.252936 0.18313567
0000c0 05 c1 9e 3e 97 af d5 3e 56 20 01 3e 33 97 30 3e
       0.31006637 0.41735527 0.12609991 0.17245178
0000d0 c0 fd e7 bd 12 61 bd 3d c8 80 68 bd 11 d0 ef bc
       -0.11327696 0.0924703 -0.05676344 -0.029274018
0000e0 4b 23 95 3d 61 e0 c9 bd 04 fc ae bd 41 29 aa bd
       0.07282122 -0.0985725 -0.08544162 -0.0830865
0000f0 a2 01 6d bd b5 ac 34 3e 08 25 5d be a3 2a dd bc
       -0.057862885 0.17644008 -0.21596158 -0.02699787
000100 e4 e5 b2 be 0a 46 0a be 96 35 bf be 09 18 9a bd
       -0.34941018 -0.1350328 -0.3734557 -0.075241156
000110 18 24 31 3d 1f 38 04 bf 81 29 cb 3c e0 3d 3f 3c
       0.043247312 -0.51648134 0.024800064 0.011672467
000120 2b f1 21 bd 24 48 f3 be b8 ea 38 bd 28 85 0b be
       -0.039536636 -0.47515976 -0.04514572 -0.13625014
000130 d5 4b 20 bf b8 16 92 be 8e 7c 59 bd f9 14 97 be
       -0.6261571 -0.28532958 -0.0530973 -0.29508188
000140 a4 c1 d3 be f5 7c b7 3e f0 cf 10 bf 26 60 c1 be
       -0.41358674 0.35837522 -0.5656729 -0.37768668
000150 00 76 12 bf a5 3a 81 be b1 fa 04 be f9 46 51 be
       -0.57211304 -0.25240055 -0.12986256 -0.2043723
000160 a0 fa 62 be 14 f0 dc be ca 57 54 be 2f 28 96 be
       -0.22165918 -0.43151915 -0.20736614 -0.29327533
000170 bd 32 d8 bd a6 65 a0 be 9c 6e 87 be e6 84 a1 be
       -0.105565526 -0.31327552 -0.26451576 -0.31546706
000180 23 8a 95 be 60 a7 57 bd 7c 4b c7 3d 50 df 03 bc
       -0.29206952 -0.052649856 0.097311944 -0.008048847
000190 05 06 1f be 74 73 e6 bd 56 4c 41 3e 27 0f fa be
       -0.1552964 -0.1125249 0.18876776 -0.48839685
0001a0 39 81 b6 3c 5e 42 6a be da 96 5e bd 8c 31 56 3d
       0.022278415 -0.2287688 -0.054343082 0.052293345
0001b0 d2 73 e1 3c 72 16 f1 3e 1b 18 c8 be 9b 4d c0 be
       0.027521048 0.47087437 -0.3908089 -0.37559208
0001c0 ad a6 02 bf 8b 99 20 bf 96 50 a6 bd e5 93 44 bf
       -0.5103558 -0.6273429 -0.08120839 -0.7678817
0001d0 00 d4 b2 3b 72 3c 45 bd ee 34 fc 3d ab 19 a8 bc
       0.0054574013 -0.04815335 0.12314783 -0.020520052
0001e0 e9 22 ac be 6e b2 d5 be ea 22 42 be 50 04 04 bd
       -0.33620384 -0.41737694 -0.18958631 -0.032230675
0001f0 6b ed f2 bd 5a 41 be be 44 5c 61 3e e0 46 94 be
       -0.1186169 -0.37159234 0.22007853 -0.28960323
000200 39 b6 41 be d5 5c 87 3c c9 d6 45 3e 52 51 01 be
       -0.18917169 0.016523758 0.19320215 -0.12628677
000210 70 8d 96 3d 42 61 23 bc 82 c3 e8 bd c4 0a 82 3d
       0.07351196 -0.009971919 -0.11365415 0.0634971
000220 1a ea 39 be 34 89 ed bb e1 49 bc 3c 2a 40 9b 3e
       -0.18155709 -0.007249022 0.022984447 0.3032239
000230 6f a0 04 3e 2e 3f 57 be 7b 6e 30 3e 60 e2 21 be
       0.12951826 -0.21020195 0.17229645 -0.15809011
000240 46 53 29 3e 9d cf c3 3d 50 0d 91 3d 82 7e fe bd
       0.16535673 0.095610835 0.07082617 -0.12426473
000250 49 d0 f0 bd 9b 6f 56 3d 20 1d 92 be f6 fd e7 3d
       -0.11758477 0.05235253 -0.28537846 0.11327736
000260 17 4e 35 3f 09 33 16 3d 8c 25 10 be 3f 6b 8b 3d
       0.7082228 0.036669765 -0.14076823 0.06807565
000270 e0 a2 32 3e 4c 8d c9 3e e7 ad 0b bd 71 6a 1c 3e
       0.17444944 0.39365613 -0.034101393 0.15274979
000280 a1 64 87 be 7c 37 6b bd 1a e7 69 3d 40 22 d0 3d
       -0.2644396 -0.05742596 0.05710516 0.10162783
000290 27 9a 8b bc d4 60 ff 3d 7b 3e c3 be 0d ba f2 bc
       -0.017041279 0.124696404 -0.38133606 -0.029629732
0002a0 65 dc 84 be 23 7f 41 be 5a 53 02 3d 00 12 a6 3b
       -0.25949398 -0.18896155 0.03181777 0.0050680637
0002b0 05 1f 44 3d bc a7 85 3d a6 26 f4 3d d8 7e 38 be
       0.047881145 0.065261334 0.11921434 -0.18017137
0002c0 58 25 ac bd 4f cd 1a 3e 15 03 43 be 22 46 52 be
       -0.0840556 0.15117382 -0.19044144 -0.20534566
0002d0 7e 13 cf 3d 08 5a b6 bd f1 1e 99 3d b5 3c 15 3e
       0.1011114 -0.08903891 0.07476605 0.14573939
0002e0 a6 80 f4 bd 9e d8 4f 38 3a b6 f6 bc 3d 98 6b 3d
       -0.119386 4.9554386e-05 -0.03011619 0.057518233
0002f0 ba cc c6 bc 43 c1 d1 3d 21 af 18 be be 9b 4d be
       -0.024267543 0.1024194 -0.14910556 -0.20078942
000300 d0 5d 40 be 7c a7 74 be 9d 3f 0a be 9c 15 4d bc
       -0.18785787 -0.23892015 -0.13500829 -0.012517359
000310 80 0d 34 bd 12 d3 85 be a3 70 ff 3d a4 98 51 bd
       -0.043958187 -0.26137596 0.124726556 -0.05117096
000320 a9 b9 89 3d 53 f7 aa be 66 2b 98 3d 8b 1c 73 be
       0.06724865 -0.33391818 0.074301526 -0.23741357
000330 42 3f 94 be 45 c4 e9 bd e0 b8 52 3d f3 e2 78 be
       -0.28954512 -0.114143886 0.05144584 -0.24305324
000340 50 0c 31 be 0a 93 a4 3e 5e 24 b0 be 02 3c 9e be
       -0.17289853 0.32143432 -0.34402746 -0.30905157
000350 9f d9 d6 be f8 ab 82 bd f3 a7 04 be 6c 83 26 be
       -0.41962907 -0.06380457 -0.12954693 -0.16261071
000360 14 90 e8 be 3c be e4 bd d3 86 1c be 64 80 48 be
       -0.45422423 -0.11169097 -0.15285806 -0.19580227
000370 1c 42 a9 bc cb 78 1b be 95 aa 8d be 30 3c 8b be
       -0.020661406 -0.15182798 -0.27669206 -0.27194357
000380 7a 82 2f be 26 07 43 be c6 9f 3d be b7 e3 2b be
       -0.17139617 -0.19045696 -0.1851798 -0.16786085
000390 02 14 7f be 12 0b 32 be ff 11 9c 3e c9 33 3d be
       -0.24909976 -0.17387035 0.3048248 -0.18476786
0003a0 28 f5 95 3d 18 1c 12 be 61 4a 55 be 3a e7 ba 3d
       0.073221505 -0.1426853 -0.20829155 0.09126134
0003b0 85 11 56 be 79 9f 7c 3e 53 f7 b5 be f2 2c 39 be
       -0.2090512 0.24670209 -0.35540256 -0.18083552
0003c0 93 3f 60 be 8e e9 93 be 1d 9f 39 be 58 98 65 be
       -0.21899252 -0.28889126 -0.18127103 -0.22421396
0003d0 18 0b ea 3c 08 20 a6 3c 00 1c 6b bc f4 f6 17 be
       0.028569743 0.020278946 -0.014349937 -0.14840299
0003e0 71 4b 32 be 4e 24 23 be 3d e6 88 bd 34 30 bb 3d
       -0.17411591 -0.15931818 -0.066845395 0.091400534
0003f0 ab 26 98 3d 12 46 9a be 2f 98 c7 bc 6a 21 9a bd
       0.0742925 -0.30131584 -0.024364559 -0.075259045

logits_t.0.bias f4 [32]
000000 5e 21 a9 3d de df 50 3e 0e f5 01 3e 0d 7a 7e 3e
       0.082583174 0.20397899 0.12691137 0.24851246
000010 00 6d 6c 3e 4b 48 16 3e e3 17 52 3e 60 7b b9 bd
       0.23088455 0.14676015 0.20516925 -0.09056735
000020 b1 23 ad 3e 5e 42 4e 3e d8 4b 75 3e 3e 2b 30 3e
       0.33816293 0.20142505 0.23954713 0.17203996
000030 5a e9 e5 3d dc 90 d1 3e cd 04 fd bd 6e a7 59 3d
       0.11226149 0.4093083 -0.12354431 0.05313819
000040 13 9e 62 3e a6 ae 8a 3e 4a dc 06 3e 5f 50 4e bd
       0.22130613 0.2708637 0.13169971 -0.050369617
000050 3d d9 0b 3e ca 7f e9 bd f6 e9 85 3d 46 bb 17 bc
       0.13657089 -0.11401327 0.06538765 -0.009260958
000060 82 c1 4f 3d 2d 7e 8d 3e 43 74 da 3d 22 7b 86 3e
       0.050721653 0.27635327 0.106667064 0.26265818
000070 9e a2 5f be 26 98 42 3d b8 28 8e 3e 38 bb ec 3c
       -0.21839377 0.04750838 0.2776544 0.028897867

logits_t.2.weight f4 [2, 32]
000000 ef 5f 45 bf 72 cf 0e bf a9 a6 15 3f bb 54 db be
       -0.7709951 -0.55785286 0.5845743 -0.42838082
000010 36 85 2f 3e fa 3a 2d 3e fd 6d 90 3e ff 1f 70 bd
       0.1714066 0.16917029 0.28208914 -0.058624264
000020 bf 86 7b 40 93 e4 8e 3e fd 53 9d be ca 30 d4 be
       3.9300992 0.27908763 -0.3072814 -0.41443473
000030 3e 4e 92 3e 98 58 2e 40 c5 50 4e 3d ad 2e 94 3e
       0.2857532 2.7241573 0.050369997 0.2894186
000040 88 74 15 bf af e9 b4 be 39 0b f0 3e 81 fe 92 bf
       -0.5838094 -0.35334536 0.46883562 -1.1483918
000050 ce 5a aa 3e 0b ca c1 bd 7b be a0 3d 2d 7c 1c be
       0.33272403 -0.09462365 0.07848831 -0.15281744
000060 2e 6d 02 3f 6a b5 dc be 29 db ad 3d f2 b5 14 40
       0.50947845 -0.43107158 0.08489067 2.323605
000070 f7 c1 5b 40 92 1a 63 3f 74 a2 0b 3d 84 bf 8d 3e
       3.4337137 0.8871242 0.034090474 0.27685177
000080 20 18 56 3f 48 f4 1f 3f d9 5c c3 be 18 1e 07 3f
       0.8363056 0.6248212 -0.38156775 0.52780294
000090 4f 78 af be 19 5c 50 be ef d0 64 be 74 b3 02 3e
       -0.34271476 -0.20347632 -0.22345327 0.12763768
0000a0 00 3d 85 c0 12 09 95 be 0a f9 ba 3e c3 9f aa 3e
       -4.1636963 -0.29108483 0.36518127 0.33325014
0000b0 a9 f4 69 be c6 f0 1b c0 e4 3a 63 3b 66 0e 38 3c
       -0.22847237 -2.4365706 0.0034672553 0.011233902
0000c0 8d 28 fc 3e 0a 87 e9 3e 84 17 25 bf fd 28 8b 3f
       0.49249688 0.4561084 -0.64489007 1.0871884
0000d0 dc f4 b3 bc b8 68 88 bd 03 6a 9f be c5 22 6f bd
       -0.021967344 -0.066605985 -0.31135568 -0.05838277
0000e0 86 1b 0c bf 0e a6 c5 3e 46 99 2e be e8 2a 15 c0
       -0.547295 0.38603252 -0.17050657 -2.3307438
0000f0 ae 0a 4f c0 85 73 5f bf 6c 61 83 be b5 4e a7 be
       -3.2350268 -0.87285644 -0.25660264 -0.32677236

logits_t.2.bias f4 [2]
000000 29 0c 18 bd 26 9f 1f 3c
       -0.03712097 0.009742534

fc.0.weight f4 [132, 264]
000000 06 79 8b bd 6b 7b d3 3c 0a d5 a4 3c dc 62 81 bd
       -0.06810193 0.025815686 0.020121116 -0.06317684
000010 50 72 61 bd fe cc 9b bd d7 b4 5f bd 40 68 12 3d
       -0.055040658 -0.076074585 -0.05461582 0.03574395
000020 f2 a6 62 bd 98 ef 75 bb 41 91 f9 bc b6 be eb bb
       -0.055334993 -0.0037526842 -0.03046477 -0.0071943654
000030 8a dd 9c bd 5b 62 25 3d 0e 32 e8 bc 0c e2 1f bc
       -0.07659443 0.040377002 -0.02834418 -0.009758484
000040 ac 41 2a bd 4c d9 65 bd e7 da 0f 3d 63 ae 2f bd
       -0.041566536 -0.056115434 0.03512087 -0.042890918
000050 60 9c c3 bb ec 64 04 3d 61 b5 25 3d 22 4c f9 3c
       -0.005969569 0.03232281 0.04045618 0.03043181
000060 5e 23 f6 3c ab 32 7f bd 02 6b ea bb 8e 49 e9 bc
       0.030046161 -0.06230418 -0.0071538696 -0.028477456
000070 e2 d1 08 bd a5 b8 03 bd 05 8d 3a bc 86 30 04 3d
       -0.033403285 -0.032158513 -0.011386161 0.032272838
000080 59 b7 28 bd 5d 01 c2 bc f2 cf 69 bd 90 26 4d 3c
       -0.04119048 -0.02368229 -0.057083078 0.012521401
000090 93 bb 69 bc d2 15 6b bd b6 f0 84 3c 8d a9 a2 3c
       -0.014265913 -0.057393856 0.016228061 0.019856239
0000a0 e9 65 5a bb 8d 18 69 bd 1c d3 0a bc 08 a0 29 bd
       -0.0033324903 -0.05690818 -0.008473184 -0.041412383
0000b0 22 74 04 bd e5 fb 97 bc f8 90 10 3d 1a 14 60 bc
       -0.032337315 -0.01855273 0.035294503 -0.013676668
0000c0 f7 62 57 bd c2 b4 83 bd a2 bd 53 bb 6d 8e 44 bd
       -0.052584615 -0.06430961 -0.0032309075 -0.04798739
0000d0 cc 4a 5e bc 58 0e 19 3c 22 d1 10 3d 8e 1a b6 bb
       -0.013567638 0.009341799 0.035355695 -0.005557365
0000e0 51 0b cb bc 4a a9 1f 3b e5 0f 18 3d e0 7f 80 3c
       -0.02478567 0.0024362379 0.037124533 0.015685976
0000f0 5a e2 b2 ba 41 6c 58 bd a6 1e d0 3c 70 53 09 3d
       -0.001364778 -0.052837614 0.02540524 0.033526838
000100 ac 3a e7 ba 1e d3 01 bc 5c 25 1b 3d be a6 85 bd
       -0.0017641387 -0.007923869 0.037877426 -0.06525944
000110 ca 58 0f 3d 16 ba 90 bd e8 66 23 3d 82 42 42 3d
       0.034996785 -0.07066743 0.03989306 0.047426708
000120 ff 57 97 39 d3 14 18 3b 37 14 77 bd bb be 0e 3c
       0.00028866527 0.0023205772 -0.060322013 0.008712466
000130 3d 80 24 bd 77 9a f9 bc da 4b cb bc f1 16 21 3d
       -0.04016136 -0.030469162 -0.024816442 0.03932852
000140 31 3b 05 bd b2 d8 94 3c c2 8a 3e bd 07 33 06 3d
       -0.032527152 0.018169735 -0.04651905 0.032763507
000150 08 29 a4 bd 65 21 4b bc 00 3d 5f bd a9 58 17 bd
       -0.080156386 -0.012398099 -0.054501534 -0.036949787
000160 96 6f 16 3d d7 08 8b bd b8 5a 39 3c 37 a3 62 bc
       0.03672751 -0.067887954 0.011313133 -0.013832859
000170 c9 6f 57 bd 62 ef b8 3c aa fb 16 bd 34 a4 ef 3c
       -0.05259684 0.022575084 -0.0368611 0.029253103
000180 b4 e2 06 bd 83 b1 88 bc d6 de 97 bd c3 30 0b 3c
       -0.032931045 -0.016686207 -0.074155495 0.008495512
000190 4b 27 34 3d 9c f2 27 bd 61 5b 8b bb 51 f8 b5 bb
       0.043982785 -0.041002855 -0.0042528366 -0.0055532833
0001a0 87 aa 00 bd 9e cd 99 3c 0d c7 e2 bc a9 cd 19 bd
       -0.031412628 0.018774804 -0.027682805 -0.03754965
0001b0 28 01 a2 bd df 3f 84 bd 16 78 25 3d bb e0 32 3d
       -0.07910377 -0.06457495 0.040397726 0.04367135
0001c0 da 36 d1 bb 4d 05 10 bd dc d6 98 bb d9 4b a4 bd
       -0.0063847126 -0.035161305 -0.004664285 -0.08022279
0001d0 5a d1 e1 bc dc 2b ec 3c 62 5b 57 3a 5f f2 da 3b
       -0.027565647 0.028829508 0.0008215216 0.006681725
0001e0 fd c6 6f bb e8 fe 52 bd 65 c8 0e 3d e8 16 63 bc
       -0.0036587112 -0.05151263 0.03485908 -0.013860442
0001f0 97 1b 90 bc 40 65 56 bc e0 20 10 bd 7a d2 2e bd
       -0.01759128 -0.013085663 -0.035187602 -0.042681195
000200 e1 94 85 3c c1 d8 46 bc 94 9e cf bc 2c 36 8a bd
       0.016306343 -0.012136639 -0.02534417 -0.06748614
000210 78 d3 cd bb 5d b4 f2 3b ca 42 9f bd ee bf 1e 3d
       -0.0062813126 0.007406755 -0.07776411 0.038757257
000220 0d 2b 7e bd 64 ae 66 bc d4 ad ee bc 24 bb 86 bb
       -0.062052775 -0.014079664 -0.029135622 -0.0041116644
000230 e5 3a a0 bd dc a4 0d bd c4 be 18 3d 73 42 3c bd
       -0.07823733 -0.03458105 0.037291303 -0.04596181
000240 ab 32 d1 ba 02 2e 91 3c 64 6e 83 ba 91 bf 86 bc
       -0.0015960535 0.017722134 -0.0010027406 -0.016448768
000250 0c e4 29 39 19 b0 42 bd 9d f7 9c bd 51 36 0e bd
       0.0001620205 -0.04753122 -0.07664416 -0.03471977
000260 f2 cc 4b 3c 6b 01 58 bd 55 8c 53 3d 08 1e a7 bd
       0.0124389995 -0.052735727 0.051647503 -0.08160025
000270 dd 2f 94 bd 61 5e cf 3c d7 8e ed bc 49 de ab 3c
       -0.07235692 0.025313558 -0.028998775 0.020980017
000280 6d f3 cb 3c 7f 4e 5a 3c 80 21 3a bd 2d 6f f0 3c
       0.024896348 0.013324379 -0.045442104 0.029349888
000290 a3 ea e2 bc ea 8c b0 bc 4e 94 12 3d 92 c9 94 bd
       -0.027699774 -0.021551568 0.035785966 -0.07265009
0002a0 f6 69 fe bc 79 f8 92 bc 82 7b 31 bc 18 4a d2 bc
       -0.031056385 -0.017940747 -0.010832669 -0.025670096
0002b0 27 de 95 bd ef eb 7f 3b f3 e8 40 bd fd 46 28 3d
       -0.07317763 0.003905054 -0.047097158 0.041083325
0002c0 89 ed a6 3c 36 26 b6 3c ee 39 02 bd e6 64 12 3c
       0.020376937 0.022235017 -0.031793527 0.008935189
0002d0 f8 f3 ee bb 1a 56 3e 3d d5 1c 23 bc bc 59 bc 3b
       -0.007292267 0.04646883 -0.009955605 0.005748002
0002e0 2c f5 14 3c dc e2 97 bd 22 15 1f 3c 48 ec 1d 3d
       0.009091657 -0.07416317 0.009709628 0.038555413
0002f0 da ed c6 bb 2c c6 a2 bc 66 60 3e bd df 68 9c 3c
       -0.0060708346 -0.019869886 -0.04647865 0.019092975
000300 6c 97 fe bc 8f 90 72 bd 0d 19 15 bc 7d e5 7c 3c
       -0.031078063 -0.059219893 -0.009100211 0.015435574
000310 62 4b 6b 3d 24 bf 58 3c e7 92 ac bb 80 19 4f 3c
       0.057444938 0.013229165 -0.0052665356 0.012640357
000320 bc eb 00 bc 67 7a b8 3c 78 98 d5 bc 9b b7 50 bd
       -0.007868703 0.022519303 -0.02607368 -0.05095635
000330 9b db fc 3b 35 1a 13 3d 82 e9 8c bd 34 a0 72 bd
       0.0077166087 0.035913665 -0.068804756 -0.059234813
000340 d0 a1 21 bd f1 a3 39 bc 21 33 69 bd 4f ce 82 bd
       -0.039460957 -0.011330591 -0.056933526 -0.063870065
000350 59 ac 85 3c c3 46 7f bd a2 dc 84 bd 52 ca 04 3d
       0.016317533 -0.062323343 -0.06487395 0.03241951
000360 5c bf 13 3d c5 42 c5 3c d0 d2 bb bb 1a 17 79 bd
       0.036071166 0.02407969 -0.005731918 -0.060813047
000370 43 44 32 3d 74 e7 64 3b 82 87 11 3d a4 8a 15 3d
       0.04352213 0.0034927996 0.03552962 0.03650917
000380 85 4c ef 3c ee 4b 39 bd 48 e1 a2 bc f2 77 7d bd
       0.029211292 -0.045238428 -0.019882813 -0.061881967
000390 69 9f 9c 3c e8 cc a4 bc 76 2a 4f 3c d6 1e 76 3b
       0.019118981 -0.020117238 0.012644401 0.0037555
0003a0 e2 ca f2 3c 28 67 9d ba c0 f9 44 bc 62 f4 2e 3d
       0.029637758 -0.0012008892 -0.012022436 0.04271353
0003b0 7a 76 1d 3d e7 66 aa 3c fc b1 d8 3c 24 eb dd bc
       0.038443066 0.02080102 0.026452057 -0.027089663
0003c0 75 69 7f bd 58 6d 93 bd 24 06 56 bd 97 db 14 3c
       -0.06235643 -0.0719859 -0.05225195 0.009085557
0003d0 92 5d 39 bd e6 e3 56 3d 05 aa 12 3d a8 3b b3 bb
       -0.04525525 0.052463435 0.035806675 -0.005469758
0003e0 58 bd 2d bd 7e 92 e2 3c 04 63 2a bb 8b 55 6b bd
       -0.0424169 0.027657744 -0.002599896 -0.057454627
0003f0 ae b6 c8 3c 2c 77 cd 38 52 dc 64 bd aa f7 a6 bd
       0.024501171 9.797359e-05 -0.055874176 -0.08152707

fc.0.bias f4 [132]
000000 bd ad 81 bd 98 b0 74 bc 7f d4 b5 3d 6e cc 8a 3c
       -0.06331966 -0.014934681 0.08878421 0.016943183
000010 dd 98 8c 3c 73 b9 6b 3c 11 5d e2 3d de df 14 3c
       0.017162735 0.014387476 0.11052907 0.009086577
000020 82 f3 07 3d e4 73 2b bb 8a 0e 98 3e 66 87 2c 3e
       0.03319121 -0.0026161605 0.29698592 0.16848525
000030 a4 63 d4 3c 73 3d cb 3d 62 59 13 bd 88 c5 a2 3c
       0.025926419 0.0992383 -0.035973914 0.01986958
000040 94 79 29 3b 9e cc fe 3c 5b a6 21 3e 4a 88 11 bc
       0.002585982 0.031103428 0.15786116 -0.0088825915
000050 71 ca 9a bc 2b 50 31 3e 27 af c5 3e ca 48 97 bd
       -0.01889536 0.17315738 0.38610193 -0.0738693
000060 20 01 04 3f af 1d dd 39 56 ea 88 3d a8 01 d3 3d
       0.51564217 0.0004217452 0.06685321 0.1030305
000070 95 66 96 bc cd 83 4b 3c 5d 8a 96 bc dc c4 3b bd
       -0.018359462 0.0124215605 -0.018376524 -0.045842037
000080 5c 53 bd 3d b1 cc 92 3d 84 5e 91 bd 4c fd 92 3d
       0.09244415 0.07167948 -0.070981055 0.07177219
000090 72 8a 08 3f 15 96 b5 3b 42 9f b7 3d 1b 75 80 3d
       0.5333625 0.005541573 0.08965923 0.06272336
0000a0 dd 42 ef bc 2a f3 23 3e f5 e8 70 3d f3 f6 12 3e
       -0.029206688 0.16010728 0.058815915 0.14352016
0000b0 0a 44 83 bc b2 5e 24 bd 09 9d 0b 3d 6a 91 85 3d
       -0.016023654 -0.04012937 0.034085307 0.06521876
0000c0 c0 d0 27 3d 3f ff 2a 3d 6f 7e 15 3e ce 43 da 3c
       0.040970564 0.041747328 0.14599012 0.02664366
0000d0 7e d4 2a bd 4e 59 5a bd 6d a8 03 3d d7 8c bd 3d
       -0.041706555 -0.053307824 0.032143045 0.09255379
0000e0 d4 47 cc 39 c6 3f 90 3d 8f 28 3f bd 58 51 ad 3c
       0.00038963428 0.07043414 -0.04666954 0.021156952
0000f0 c8 95 93 bd b5 73 69 bc b1 76 9a bc 75 04 b2 3d
       -0.07206303 -0.014248778 -0.018855425 0.08692256
000100 84 06 b8 bb 36 5c f3 bb 05 d4 f9 3c 51 e0 f7 3c
       -0.005616011 -0.007426764 0.030496607 0.03025833
000110 76 70 20 3e 8e 8a 93 3d e3 19 5d 3b 77 4d 8f 3d
       0.156679 0.072041616 0.0033737354 0.06997197
000120 5f 29 49 3c 22 68 47 3d 7c 61 98 3d df ee 32 bd
       0.01227793 0.048683293 0.07440469 -0.043684836
000130 92 71 b9 3d 9a 9c 2c 3d ab a3 0e 3d 08 77 9d bc
       0.09054865 0.042141534 0.034824055 -0.019221798
000140 2c 81 31 3d bf e4 bf 3d b5 85 4c 3d 3f 91 46 3d
       0.04333608 0.09369802 0.0499322 0.04847836
000150 df 88 aa 3d 4f 96 6b 3e f9 77 55 3e ff 80 fd bc
       0.08326887 0.23006557 0.20846547 -0.0309453
000160 18 23 8b bd 9e fc 34 bd 1d 9d 86 3d 41 9d 6e bd
       -0.06793803 -0.044186227 0.06572936 -0.058255438
000170 2d 44 4b 3d d5 59 81 bc 4e 65 1d 3c 93 d5 03 3d
       0.049625564 -0.015789906 0.009606672 0.032186102
000180 0f bb f1 3d 9b 00 15 3e dd cd a9 3e 30 9f 76 3e
       0.11803257 0.14551012 0.33164874 0.24084163
000190 e2 5f 46 bc 9a 77 a2 3d 35 cf 20 bd 3e cb 0b 3d
       -0.012107821 0.079329684 -0.039260108 0.034129374
0001a0 ec 37 ad bc 63 83 f5 bc 95 39 7f 3d 17 38 ee 3d
       -0.02114483 -0.029969877 0.062310774 0.11631792
0001b0 b5 1f 17 3e 83 5d 3f 3d f3 f0 08 bd 36 19 1a 3b
       0.14758189 0.04672004 -0.033432912 0.0023513562
0001c0 d5 4c 83 3d 9e ad 73 3c b4 60 b9 b8 b3 42 bc 3d
       0.06411139 0.0148729365 -8.8395e-05 0.09192409
0001d0 75 2c 4a 3e 7c 40 aa 3c be a1 06 3c 1f 2d 0f bd
       0.19743522 0.020782702 0.008217273 -0.03495514
0001e0 c4 07 39 bd 9e be 8f bc 5e f5 da 3c 6a f4 d8 3d
       -0.04517342 -0.017546948 0.026728328 0.10593493
0001f0 dd cc e6 bc 67 90 ca 3d d8 c0 87 bc b5 ea b2 bc
       -0.028173858 0.09890824 -0.016571447 -0.021840433
000200 8e 6c e8 3e 78 d5 1c bd db ce a8 bc 8a 6a b3 3d
       0.4539532 -0.038289517 -0.020606449 0.08760555

fc.2.weight f4 [2, 132]
000000 60 19 73 3c 4a e0 6a bc bb 56 92 3e 72 e5 ab 3e
       0.014837593 -0.014335701 0.28581795 0.3357349
000010 b9 20 a9 3e 4d b5 9d 3e f7 d8 b3 3d db f8 8b 3e
       0.33032778 0.30802384 0.08781617 0.273383
000020 c9 55 60 3e 61 71 87 3e 66 fe 6c bf 57 4c 8b 3c
       0.21907724 0.2645369 -0.9257568 0.017004175
000030 05 5d e8 3d 6c be 11 be c4 b8 5a bd b1 eb a8 3e
       0.11345867 -0.14232796 -0.053398862 0.32992318
000040 a3 23 44 3e 74 43 32 3c d5 d9 65 be 28 df 3b 3d
       0.1915422 0.01088034 -0.22446378 0.045867115
000050 d1 00 a9 3e 94 4e 98 be 4a 32 83 be 6e 9e 9d 3b
       0.33008435 -0.2974745 -0.25624305 0.004810146
000060 f0 35 35 bf 8c 71 b9 bc f1 82 8f 3e 90 91 9d 3e
       -0.7078543 -0.022637151 0.28029588 0.30775118
000070 d9 59 b4 3e 00 da 1a b9 d9 33 3c 3c 10 53 d9 3c
       0.35224798 -0.00014767796 0.011486971 0.026528865
000080 4f b7 39 bf 68 22 9f 3e 67 45 38 bd 6f 13 80 3e
       -0.7254533 0.31080937 -0.044988062 0.25014827
000090 c7 05 79 3d 61 03 29 3e 3b 5c 43 3e 01 25 a4 3e
       0.060796525 0.16505195 0.19078152 0.32059482
0000a0 5e 70 3d 3d 9d 54 af 3e d4 f3 85 bb e7 38 8c 3b
       0.04624974 0.34244242 -0.0040879045 0.004279244
0000b0 ae 83 4c 3e 3f 0c 91 bd 2d 23 87 3e 05 42 86 3e
       0.19972107 -0.07082414 0.26394024 0.26222244
0000c0 78 37 48 3e 22 1b 9b 3e a1 d4 36 be 50 cc 88 bd
       0.1955241 0.30294138 -0.17854549 -0.066795945
0000d0 27 00 a2 3c 1b a2 39 bd 72 87 98 3e b9 7d 84 3e
       0.019775463 -0.04532061 0.29790837 0.2587717
0000e0 6c a6 5d bd ee e2 d5 be c3 37 ae 3b 63 fd 33 bf
       -0.05411379 -0.41774696 0.005316706 -0.7030851
0000f0 fc 35 79 bb cb c9 34 bd 08 7d 77 bb c3 8b 8a 3e
       -0.0038026562 -0.044137757 -0.0037763733 0.27059755
000100 6d de 57 3e 97 c0 88 3e 2a ac 1f bd a9 17 8b bf
       0.21080942 0.26709434 -0.038982548 -1.0866596
000110 c4 fd 8e be d1 63 1f 3d c8 52 9a 3e 9c ea 29 3e
       -0.27927983 0.03891355 0.30141282 0.16593403
000120 df 10 9b 3c d5 b9 53 3e 09 29 02 3c c4 b1 96 3e
       0.018928943 0.20676358 0.007944354 0.294325
000130 f0 ab 18 bf 05 a1 02 3e 4e 5f 0e bc 4f de af 3e
       -0.59637356 0.12756737 -0.008689715 0.34349295
000140 e5 92 00 bd 36 3c 42 bd e6 11 14 3e 18 07 52 3d
       -0.03139009 -0.047420703 0.14459953 0.051276296
000150 46 0b 3d 3e 33 22 a4 be d0 36 24 bf 88 8c 14 bd
       0.18461332 -0.32057342 -0.6414614 -0.036266834
000160 88 4b 1c bc f2 bc 98 3e d2 a6 8a 3e b9 63 b4 3e
       -0.009539492 0.29831654 0.270804 0.35232332
000170 4e cf 88 3e 46 c0 a3 3e 4b 91 83 3e 8e 13 a2 3e
       0.2672066 0.3198263 0.25696787 0.31655544
000180 74 57 b3 3e d8 04 58 be 64 90 9a 3e a7 3c b1 be
       0.3502766 -0.21095598 0.30188286 -0.34616587
000190 d5 bf 45 bd 2b 26 50 3e 4d ff 95 3e 2e e7 31 bc
       -0.04827865 0.2032706 0.29296342 -0.01085834
0001a0 be 6b 9d 3e 72 c9 9f 3e d4 20 1a 3e cb 48 fd bc
       0.30746263 0.31208378 0.15051585 -0.0309185
0001b0 8c 3a a4 be fb bb 96 3e c7 17 68 bd c7 fd 3c 3e
       -0.32075918 0.29440293 -0.0566633 0.18456183
0001c0 68 6c 1a 3e 77 d5 7d bd 42 85 b3 3e 47 2c 9b 3e
       0.15080416 -0.061971154 0.35062605 0.30307218
0001d0 d3 56 10 be 4d 7a c3 3b 06 d4 32 3e 4f 90 74 3e
       -0.14095621 0.005965507 0.17463693 0.23883174
0001e0 a4 6d 1e bd c2 f6 96 3e 00 d7 b5 bf 37 53 3e 3d
       -0.03867878 0.29485136 -1.4206238 0.04646608
0001f0 86 57 33 bd ef a1 aa bd cb c9 b4 3e 5c 94 83 3e
       -0.04378464 -0.08331668 0.35310206 0.25699127
000200 12 32 00 bf 70 81 ef bc f5 38 ab 3e 49 03 70 3e
       -0.500764 -0.029236525 0.33441892 0.23438753
000210 c5 10 81 bd f8 8e 6f bd 0b 93 ef 3e 4a f2 86 3d
       -0.06302027 -0.058485955 0.46791872 0.06589182
000220 7a 4b a2 3d fd 9a e9 3d 81 45 9c 3e 7c 16 35 3e
       0.07924552 0.11406515 0.30521777 0.17684358
000230 d8 d8 61 3e b5 a6 84 3e df 20 01 bf f5 fc 96 3e
       0.22055376 0.25908437 -0.5044078 0.29489866
000240 0d a0 99 3e 84 93 b2 bd 3f 33 b1 bd 7c 35 b3 3d
       0.30004922 -0.087195426 -0.086523525 0.08750436
000250 f1 28 75 3e 42 70 52 bd 7c c6 89 bc cc 21 3d 3c
       0.23941399 -0.05137659 -0.016818278 0.011543702
000260 27 75 8a 3d c3 4d cc 3e 06 49 e2 be cd 2e 60 bd
       0.06760626 0.39903077 -0.44196337 -0.054732133
000270 bb e2 81 bf 11 83 2d bc 1b 53 7d 3e d8 a7 f0 3d
       -1.0147318 -0.010590331 0.24738733 0.11750764
000280 a6 b6 38 3d 92 ac ce bc 0d bc 9e bc 80 d5 be 3b
       0.045096062 -0.025228772 -0.019376779 0.005823791
000290 e1 6d 08 bf 90 57 04 3e bb 02 2f bd 08 25 5c 3e
       -0.5329266 0.12924027 -0.042727213 0.21498501
0002a0 57 4b 6d bf d0 7f 9a 3e ae 34 a0 3e 25 26 04 3e
       -0.92693084 0.30175638 0.3129019 0.12905176
0002b0 e5 f6 e0 bc 84 10 eb 3e d4 2c c6 3e 2e 7d 6b 3e
       -0.027461478 0.45911038 0.38706076 0.22996971
0002c0 23 61 8c 3e be 1f 62 bd bb 05 37 3e 32 b5 57 3e
       0.2741786 -0.055206053 0.1787328 0.21065214
0002d0 20 04 99 3e 83 19 39 3e 9a c6 90 3e 37 1a 71 bd
       0.2988596 0.18076138 0.2827652 -0.05886289
0002e0 db 22 70 bd 32 07 9d bc 43 5d 01 3e 29 53 91 3e
       -0.05862699 -0.01916847 0.12633233 0.2838376
0002f0 17 03 86 3d 84 41 51 bf 62 9d d6 bc 4d 5d 5f 3d
       0.06543558 -0.81740594 -0.026198093 0.054532338
000300 4c 4e 64 bd df 38 6e 3c c7 78 3b bc b1 0a 85 3e
       -0.055738732 0.014539926 -0.01144237 0.2598472
000310 d2 26 7c 3e 63 00 4c 3e b0 1e 09 3d 62 2c 0a bf
       0.24624184 0.19922023 0.03347653 -0.5397397
000320 e4 45 a4 3e a7 fb 9f 3e b6 86 35 3e d9 b9 79 3e
       0.32084572 0.31246683 0.1772717 0.24387302
000330 99 94 98 bd ad b0 7d 3e af 68 7c 3e b2 e8 3e 3e
       -0.07450218 0.24774428 0.24649309 0.18643454
000340 0f 36 30 be f0 c2 a3 3e 1c c8 7f 3d 2d a8 6c 3d
       -0.17208122 0.31984663 0.0624467 0.057777572
000350 90 56 7d bd 59 c5 bd 3e 68 37 9f 3e 65 e8 86 bd
       -0.06185013 0.37064627 0.3109696 -0.065872945
000360 9b 66 9f 3e 95 f7 bc 3e 0c 0c 02 3f 39 f2 4f bb
       0.3113297 0.3690764 0.5079963 -0.003173007
000370 80 71 5d ba 0b fa 2f 3e c1 5e 6f 3e 2d 6d 54 3e
       -0.0008447394 0.17185228 0.2337599 0.20744772
000380 af 02 8a 3e d6 49 2d 3e 22 73 7c 3e f2 bb 0c 3e
       0.26955172 0.16922697 0.24653295 0.1374357
000390 d5 2d 99 3e f2 3b bd 3e 3e 73 27 bf 82 99 b4 3e
       0.2991778 0.36959797 -0.6541022 0.35273367
0003a0 03 7d 85 3c 3d f9 8a 3e 90 5e 33 3e 9d a3 a8 3b
       0.016294962 0.2714328 0.17516541 0.0051464573
0003b0 4b 54 be 3d a2 af 3e 3e fe 3c 95 3e 6e ff 9b 3e
       0.09293421 0.18621686 0.29148096 0.30468315
0003c0 06 d3 0c be 98 91 5d 3e 80 0f bf bb 01 6c 97 3e
       -0.13752374 0.21637571 -0.005830705 0.29574588
0003d0 e6 ed 98 3e 83 c2 8e bc 51 f0 17 3e 82 4d e4 3d
       0.29869002 -0.017426735 0.14837767 0.11147596
0003e0 89 91 a5 3e 99 34 1d 3e d4 75 93 3e 37 1f 4c 3e
       0.32337597 0.15352096 0.28800833 0.19933783
0003f0 20 f6 ec 3b c2 bc 27 3e bf 99 64 bf 75 ea 9d 3e
       0.007231489 0.16380599 -0.892971 0.3084294

fc.2.bias f4 [2]
000000 eb 92 07 bd 14 de cc 3d
       -0.033099096 0.100032955
